e-nose-cnn/net/mobilenet.pkl (torch_old, 23179 bytes, 10 tensors)

weight f4 [10, 1, 1, 3]
00000000: edeb bd3f a310 3340 e493 7940 3c3f 7340
00000010: 5aee 7140 3e29 2f40 fac4 0cbd 5f78 9dbe
00000020: 71dd b03d 0f5b 7ac0 6a45 2ac0 eb8a edbf
00000030: 743f 393f 4c31 653f 1005 f73e eaf2 0040
00000040: 5b7e 1940 866f 0840 50cc 953f afc1 d63f
00000050: afba ba3f f07f 503f 3135 a03f cd52 a43f
00000060: f6e9 2740 9151 2640 5029 3740 0768 813e
00000070: 4925 8cbe 0404 97be
1.4837624 2.7978904 3.8996515 3.8007345 3.7801728 2.7368922 -0.03436754 -0.30755898
0.086359866 -3.9118078 -2.6604867 -1.8558019 0.72362447 0.89528346 0.4824605 2.0148263
2.3983371 2.1318069 1.1702976 1.6777858 1.4588221 0.8144522 1.2516233 1.2837769
2.6236548 2.5987284 2.8618965 0.2527468 -0.27372196 -0.2949525

bias f4 [10]
00000000: 7620 7f3d 4920 0bbe b879 6bbd 05bc 87be
00000010: 18d2 44bd 5291 e33e 9b6d be3f e896 833f
00000020: 0ee4 08be 6149 79be
0.062286817 -0.13586535 -0.057489127 -0.26510635 -0.048051924 0.44446808 1.4877199 1.0280428
-0.13368246 -0.24344398

weight f4 [6, 10, 1, 1]
00000000: b2db c0be b207 23c0 c20d 6d3e 6e3c 143e
00000010: b379 613f 3009 0e40 3927 44bf eb01 dd3f
00000020: 6acb 81be 34ed 11be 8c04 fdbe 7ee9 f03f
00000030: fd94 933e ee3b 043b e4e4 043e 684e a3bf
00000040: 8324 bd3e ca48 8a3d 4ae2 5b3e 86d0 5cbe
00000050: 5bb8 39c0 1249 a13d a6b5 703c 68a5 3740
00000060: 3f94 65bd 95de 8a3e 2043 2740 3281 9cbe
00000070: 1d0a 1fc0 f2f3 83be d26f 0b40 0153 a4bf
00000080: 0b85 93bd d840 4ebf f976 c73e 9f4f b1bf
00000090: f24e 933e 9b2f 8f3f 537e b5be fb2c 8cbe
000000a0: 9f0e 03c0 7b22 433f 0fab aebe 8070 e23f
000000b0: a428 e03e e5cb 643f e494 993f 43ea 8e3f
000000c0: edb6 07bf 45b0 1ebe f6c4 89bf ed5a b0bf
000000d0: 6ee4 4ebe 8d2c a2be 5b1f 263e f265 b23f
000000e0: 66d4 acbf b38c 65bc d0f4 c93f 8b5f 8a3d
-0.37667614 -2.5473447 0.2314978 0.14476177 0.88076323 2.2193108 -0.7662235 1.726621
-0.25350505 -0.14250642 -0.49417531 1.8821256 0.28824607 0.0020177322 0.1297794 -1.2758303
0.3694192 0.06752165 0.21473041 -0.2156392 -2.9018772 0.07875265 0.014691746 2.8694706
-0.05604958 0.27122942 2.613472 -0.30567318 -2.4849923 -0.25772053 2.1787 -1.2837831
-0.0720311 -0.80567694 0.38957956 -1.3852423 0.28771168 1.1186403 -0.3544794 -0.27378067
-2.0477674 0.7622449 -0.34114882 1.7690582 0.43781006 0.8937362 1.1998563 1.1165241
-0.530135 -0.15496929 -1.0763233 -1.3777748 -0.20204327 -0.31674615 0.16222899 1.3937361
-1.3502319 -0.014010596 1.5777836 0.067565046

bias f4 [6]
00000000: b8c5 603e 1c02 83bf f70f acbf cfac 143f
00000010: 5ac4 a1be 7129 673f
0.21950424 -1.0235019 -1.3442372 0.58076185 -0.31595117 0.9029761

weight f4 [6, 1, 1, 4]
00000000: 34d5 0dc0 583a 843f 3ccd 913f ee78 7e3f
00000010: 6145 813f 1617 bc3e 7cc6 7dbd 47ea ad3d
00000020: b76b 94be 1e87 4abf 7a36 f9bd 0f42 92be
00000030: 3f36 103f 45f4 12bf 940b 92bf 06b1 a2bf
00000040: e983 5dbf 9d51 00bf 7c74 20bf 2a19 6bbf
00000050: ef06 a9be bea8 3fbf 7c5d 43bf fde4 a7bf
-2.216138 1.0330305 1.1390758 0.99403274 1.0099298 0.36736363 -0.061956868 0.084919505
-0.2898843 -0.7911242 -0.12168594 -0.28566024 0.5633277 -0.57403976 -1.1409783 -1.2710273
-0.86529404 -0.5012453 -0.6267774 -0.9183527 -0.33013102 -0.74866855 -0.7631452 -1.3116757

bias f4 [6]
00000000: b2e1 1e3e 936c 5bbe 2892 3e40 a1ef 873f
00000010: ddcb b13f 3366 063f
0.15515783 -0.21428137 2.9776707 1.0620004 1.3890339 0.52499694

weight f4 [10, 6, 1, 1]
00000000: f3af 3e3e 85ce 213f f4aa c63f b7ef 38bf
00000010: f832 a23f dc41 54bf 0187 d63f af64 293e
00000020: 13e7 f9be bbdf c0be fdd2 3d3e 1540 0bbe
00000030: db5c 99bf f9b8 a73d 297d 693f 1db6 15bf
00000040: 2427 683f 15b9 073f 7766 9dbf a63a 50be
00000050: 0744 803f 65c0 993f 7723 873e 39fa 80bf
00000060: 6b0e a4bf a688 663f 787b 81bf ad43 573d
00000070: 1016 36bf d2af e03e da9b bcbe 67c8 18bf
00000080: 4e1e 663f 4be0 25bd 786c bfbe 9f48 c03e
00000090: fbbb 1f3e 2548 80be 48f6 2bbf e0df b63f
000000a0: 02d5 1ebf d543 2c3d f5f6 6f3e 95f4 71be
000000b0: 0032 f6bf c856 e5be 4323 a3be edfb ba3f
000000c0: adad 57bf 83da 773e efd4 54bf 9b9f 543f
000000d0: feaf d13d 9f40 333f 5418 65bf 2667 553f
000000e0: 9c6d c3bb a0c3 3c3f f22e 653f 2a23 d33d
0.18621807 0.6320575 1.5520921 -0.72240776 1.2671804 -0.82912993 1.675995 0.16542314
-0.48809108 -0.37670693 0.18537517 -0.13598664 -1.1981462 0.081895776 0.91206604 -0.5848101
0.90684724 0.5301679 -1.2296895 -0.20334873 1.002076 1.2011839 0.26394245 -1.0076362
-1.28169 0.9005226 -1.0115805 0.052554775 -0.71127415 0.4388414 -0.36837655 -0.5968079
0.8988999 -0.040497106 -0.37387443 0.37555405 0.15599053 -0.25055042 -0.6717267 1.4287071
-0.62043774 0.042056877 0.2343405 -0.23628457 -1.9234009 -0.4479277 -0.3186284 1.4608132
-0.84249383 0.2420445 -0.8313741 0.8305604 0.10238646 0.7002048 -0.89490247 0.8336052
-0.005963994 0.73736 0.8952476 0.103094414

bias f4 [10]
00000000: 17bc 03c0 b201 29bf c2d4 9abe ec76 98bf
00000010: c213 583f 503f 17bf 1bdd 96be b5f7 b13f
00000020: 0f9b 493e cbc9 e5be
-2.058355 -0.6601821 -0.30240446 -1.1911292 0.8440515 -0.5908098 -0.29465565 1.3903719
0.19688056 -0.44880518

weight f4 [7, 280]
00000000: d1f8 173f b82f 8e3e 3df5 253f 27e5 983e
00000010: a41d dd3e a0aa 253f 715b 493e d1fe a9be
00000020: f4e7 85be c966 99be e8d7 e2be 0f2f d5be
00000030: 9672 41be 07f6 a3bd 0cbd 233d a947 cc3d
00000040: 8c80 963d 3681 08bd 8df5 ffbd f34b 28be
00000050: beec 22be ca5b 37be 24f0 fcbd ef95 84bc
00000060: 5692 643d 4ca2 f03d 3546 123e 4c45 0ebe
00000070: 0d33 f1be 5e53 8dbf 910d 90be 7fe8 abbe
00000080: 62bc da3d 19b2 80bb 3b12 d8be 681c fbbe
00000090: e0d5 f7be 8ade 16bf 3f76 9ebe 29be 9ebd
000000a0: 397d 843e 100a 153f d2ed 5f3e 068d 143f
000000b0: 247d fe3e 75eb bc3e 0887 36be 8dad 71be
000000c0: 454a a4be 6440 85be 59ad 2dbe b2ad 35be
000000d0: a7db 213e 28b7 39bd a528 9abe d142 c7be
000000e0: 096f 09be d9b6 2a3f 13a4 1e3f 69e1 93bd
000000f0: c800 923e a791 403e e8e9 a1ba 9267 4ebe
00000100: f318 60be e558 48be 5104 a6bd ee36 033e
00000110: 5a51 673e 116a ea3d 44f8 8a3d 27d6 e23d
00000120: 44de 3c3e 4f22 c13c 7651 373e 23ca 023e
00000130: 11a5 263e 37f6 ac3d 5288 df3c a9d9 003d
00000140: 18c1 28bd 1490 96bc 899a 12be 56ef 81be
00000150: 2498 dc3d 7e47 a2bb 05dc bb3e a4ad 703d
00000160: 1840 933e 3e93 363e 3c4b 223e d910 863b
00000170: 2511 b13c e14a 993d e678 263e e61f 063e
00000180: cb3f d33d 6678 8cbd 838b 30be 4beb 20be
00000190: 8a4b a5bc 4802 c4bd a4ca b83c f8d2 183d
000001a0: d932 be3d cbcb 243d a124 373d 2040 cd3d
000001b0: 671d 873d 0c21 e03d fbb9 953d d762 8e3d
000001c0: 5bec 013f 0c45 0d3c 2e24 ef3e 8740 d93e
000001d0: 76eb 983e 0dbd ebbe 966a 84be 6e9b 1f3e
000001e0: 7bf9 a63e 0bc0 853d 7d89 8dbe 42c8 b6be
000001f0: c2ee 64bd 9321 e33d f02b e63d 373e 333e
00000200: de23 383e a1fe 243e 6814 ab3d 7a9a 2c3d
00000210: 38f6 ef3c 3fb0 3dbb ed28 d33c b80b 96bb
00000220: 2ee3 3a3d 881a d73c d09a 80bd 7672 03be
00000230: 94eb 203e bdb5 923e c0d2 2ebc 8fe0 88be
00000240: c9d2 09be ace2 f93d f7fe 0f3e 7b0b 123c
00000250: 7677 ce3d 4d54 ca3d b63c 0a3d 1f6a 18bb
00000260: 6d09 03bd cd21 c5bd 546f d8bd fbd9 02be
00000270: eb0a adbd a531 13be 02e6 73bd aa3b 08bd
00000280: 333d dc3c 5dae 4a3b 5529 833c 0fed 8c3d
00000290: 59d3 aa3d 62aa 043e 2578 f03d 0155 ec3d
000002a0: e785 3cbe 7e52 92be da28 02be aef0 8a3e
000002b0: d33e d43e 5546 09be 581b 3fbd 78d4 0e3e
000002c0: b398 883e 9da0 643e b240 2c3e b247 24bc
000002d0: cc2e ffbd 8a4c dcbd ba10 2cbe 31f0 22be
000002e0: 3f0c 11be 1b18 cebd 2752 bebd fb46 0cbd
000002f0: 15ed fdbb bb16 38bc c5fd 2e3c 2e61 2dbc
00000300: d52c 0d3c b983 e7bc 35f6 a5bd 83ea 17be
00000310: 27e5 59be 94aa 64bf 8307 c7be 9ded 193f
00000320: e212 983e 57e9 d8be 54c9 b4be 1fdc 80be
00000330: f7c1 b13c 852c ca3d 6826 6e3e 5ec3 c73d
00000340: 3a54 de3c 7158 31be 0451 62be a060 24be
00000350: cf99 16be 5142 39be 1006 2fbe 0f5c e0bd
00000360: 1243 22bd a98f 00bb e9a6 9f3d 1fc8 a83d
00000370: 947d 7b3d 9352 2c3a 33e0 05be 31c6 94be
00000380: 3dd3 b23e ee6d 22bd 9730 46be bd11 373e
00000390: 0284 9a3e 8b7e 42be 765a 24be 80fd 383e
000003a0: a4ca d53e aee9 7f3e 9bfb edbd 279f bdbe
000003b0: 7bd1 86be 1c0f debd ac36 97bd 8eba 86bd
000003c0: a61e f0bd 5d1e a9bd 7fbc 3cbd 853b eebb
000003d0: d6a7 cc3b 47e0 653b 8583 8c3c 1e8b 833c
000003e0: 37bf 813d 437b 6e3d 7c0c 06bc c55e 9dbd
000003f0: f5f1 0a3e 8fc2 2abe dfb6 ec3e 1d42 1c3e
0.5936404 0.27770782 0.6482733 0.2986233 0.43186677 0.6471348 0.19663788 -0.33202222
-0.2615353 -0.2996123 -0.44305348 -0.41637465 -0.18891367 -0.0800591 0.03997521 0.099746056
0.07348737 -0.03332635 -0.12498007 -0.16435222 -0.15910622 -0.17906108 -0.12350491 -0.016184775
0.05580362 0.11749706 0.14284594 -0.13893622 -0.4710926 -1.1041067 -0.2813535 -0.33575818
0.106804624 -0.003927481 -0.4220141 -0.4904511 -0.4840536 -0.5893332 -0.3094959 -0.07751114
0.25876787 0.5821848 0.21868065 0.58027685 0.4970485 0.3689839 -0.17824948 -0.2360136
-0.32087913 -0.2602569 -0.16960658 -0.17742041 0.15806447 -0.045340687 -0.30109134 -0.38918164
-0.13421263 0.66685253 0.6196911 -0.07220728 0.2851622 0.18805562 -0.0012353035 -0.20156696
-0.21884517 -0.1956516 -0.08106292 0.12813923 0.22589627 0.11446012 0.06785634 0.110760026
0.18444163 0.02357593 0.17902169 0.12772422 0.16273905 0.08445399 0.027286682 0.031457577
-0.041199774 -0.018379249 -0.14316763 -0.2537791 0.10771206 -0.00495237 0.366913 0.058759347
0.28759837 0.17829606 0.15849012 0.004091364 0.02161462 0.07484985 0.16257057 0.13098106
0.10314902 -0.06858902 -0.1724072 -0.15714757 -0.020177621 -0.095707476 0.022557564 0.03731057
0.09287042 0.040233415 0.044712666 0.100219965 0.06597405 0.10943803 0.073108636 0.06952446
0.50751275 0.008622419 0.4670729 0.42432043 0.29867142 -0.46042672 -0.2586257 0.15586635
0.32612213 0.0653077 -0.27643958 -0.3569966 -0.05589176 0.11090388 0.11238849 0.17504202
0.17982432 0.16112758 0.083535016 0.042139508 0.029292211 -0.0028944162 0.02577635 -0.0045790337
0.04562681 0.026257768 -0.06279528 -0.12836632 0.15714866 0.2865428 -0.010670364 -0.26733825
-0.13459314 0.12201437 0.14062105 0.00891387 0.10081379 0.0987936 0.033749305 -0.0023256612
-0.03199141 -0.096255876 -0.10568109 -0.12778465 -0.08449348 -0.14374407 -0.059545524 -0.033260025
0.02688465 0.0030926683 0.01601092 0.06881153 0.083410926 0.12955621 0.11741666 0.11539651
-0.18410455 -0.28578562 -0.12710896 0.2713675 0.4145418 -0.13405736 -0.046656936 0.13948238
0.26679 0.22326894 0.16821554 -0.010026859 -0.12460098 -0.10756786 -0.16803256 -0.15911938
-0.14164828 -0.100631915 -0.09293013 -0.03424738 -0.0077492096 -0.011235888 0.010680621 -0.0105822515
0.008616646 -0.028261052 -0.08103601 -0.14835553 -0.21278821 -0.8932278 -0.38872918 0.60128194
0.29701906 -0.42365524 -0.3530985 -0.2516794 0.021698935 0.09871773 0.23256838 0.0975406
0.027139772 -0.17318894 -0.22101218 -0.16052485 -0.14707111 -0.18091704 -0.17092156 -0.10955059
-0.039614744 -0.0019616878 0.077955075 0.08241295 0.061399058 0.0006573584 -0.13073806 -0.29057458
0.34926787 -0.03965562 -0.19354473 0.1787786 0.3017884 -0.18993585 -0.16050133 0.18065453
0.41756165 0.24991485 -0.116202556 -0.37035486 -0.26331696 -0.10842726 -0.07383475 -0.06578551
-0.11724596 -0.082577445 -0.0460782 -0.007270279 0.0062455935 0.0035076307 0.017152557 0.016057547
0.063352995 0.05822302 -0.008181687 -0.076840915 0.13568862 -0.1667578 0.4623327 0.15259595

bias f4 [7]
00000000: c147 84bf 837c 323f 6de4 e4bd 8b3d 17bd
00000010: 2b3e 503e 24d1 5ebf bb8b 803f
-1.0334398 0.6972124 -0.11176381 -0.036923926 0.20336215 -0.87037873 1.0042642
