e-nose-cnn/net/mobilenet9314.pkl (torch_old, 23227 bytes, 10 tensors)

weight f4 [10, 1, 1, 3]
0	0xbdd967fe	-0.10615538
1	0xbf254c84	-0.6456988
2	0xbf395f21	-0.7241078
3	0xbfb7ce20	-1.4359779
4	0xbf824046	-1.0175865
5	0xbf81ae7b	-1.0131372
6	0xbeafcafa	-0.34334546
7	0xbf45fac3	-0.77335757
8	0xbf110b17	-0.56657547
9	0xbf51feec	-0.82029605
10	0xbf3e5b6e	-0.7435826
11	0xbeca3d82	-0.39500052
12	0xbdc42ab6	-0.09578459
13	0xbe0a4d18	-0.13505971
14	0x3f2f51d5	0.6848424
15	0xbf81e683	-1.0148472
16	0xbfaebb66	-1.365094
17	0xbfa9abe0	-1.3255577
18	0x3f15faef	0.5858602
19	0x3f57ea1d	0.84341604
20	0xbe333f6c	-0.17504662
21	0xbf064e3a	-0.52463114
22	0xbf892909	-1.0715648
23	0xbf8f77d6	-1.1208446
24	0x3ddcc4a5	0.107796945
25	0x3ed08506	0.4072649
26	0x3e26bde9	0.16283382
27	0xbfc85267	-1.5650147
28	0xbf98322c	-1.1890311
29	0xbf5ce870	-0.8629217

bias f4 [10]
0	0x3d81f39a	0.063452914
1	0x3f552511	0.83259684
2	0x3edce773	0.43145332
3	0x3f2dece6	0.67939603
4	0xbb26b17b	-0.0025435376
5	0x3f1d1712	0.6136333
6	0x3eeaf8ea	0.4589303
7	0x3e4f38ba	0.20236483
8	0xbe524a2d	-0.20536108
9	0x3e90ff20	0.28319645

weight f4 [6, 10, 1, 1]
0	0x3d80b0d7	0.062837295
1	0x3f51b9df	0.8192424
2	0x3eec9f0b	0.4621509
3	0x3e9b47e9	0.303283
4	0xbe8be0ef	-0.27320048
5	0x3f2028f7	0.6256251
6	0xbe869d54	-0.26291907
7	0xbfa66bbb	-1.3001627
8	0x3edab104	0.42713177
9	0xbeabe05b	-0.33569607
10	0x3ec689fa	0.38777143
11	0xbed2bcf1	-0.41159776
12	0x3ed35de9	0.41282585
13	0x3e2d3fd6	0.16918883
14	0x3e878b22	0.26473337
15	0xbe548618	-0.20754278
16	0xbf0e4cf2	-0.5558616
17	0x3ec9176a	0.39275676
18	0x3e41be5a	0.1892027
19	0x3eb20e7f	0.34776685
20	0xbeecad55	-0.46225992
21	0xbf0c003f	-0.54687876
22	0x3f496641	0.7867165
23	0x3ea14fe5	0.31506267
24	0x3eefda45	0.46846214
25	0x3e07cd17	0.1326183
26	0xbe51a6f0	-0.20473838
27	0xbf24ba24	-0.6434653
28	0x3f1c18d2	0.6097537
29	0x3d08bf66	0.033385657
30	0x3f07a21d	0.5298174
31	0x3f34e3d3	0.7066013
32	0xbd1fdf4a	-0.039031304
33	0x3db0e4c2	0.08637382
34	0x3f0d2d5c	0.5514734
35	0x3f346b5f	0.70476335
36	0x3f30ae9e	0.69016445
37	0xbb4b8704	-0.0031055817
38	0xbe45a7d6	-0.19302306
39	0xbf959400	-1.1685791
40	0xbee276ee	-0.4423136
41	0xbf5364c8	-0.82575655
42	0x3e12efe4	0.14349324
43	0x3f30841e	0.68951595
44	0xbe70ed78	-0.23528087
45	0x3fa173b0	1.261343
46	0x3f28ea95	0.65982944
47	0xbf4ade39	-0.79245335
48	0xbec48c4c	-0.38388288
49	0x3f7dc210	0.9912424
50	0x3e4ab307	0.19794856
51	0x3fcf6774	1.6203446
52	0xbf5ab60c	-0.8543403
53	0x3f9735bc	1.1813273
54	0x3ec7fbfa	0.3905943
55	0xbfa24231	-1.267645
56	0x3ef91434	0.48648226
57	0xbf355f33	-0.7084839
58	0xbdc22806	-0.0948029
59	0x3f9a90c7	1.2075433

bias f4 [6]
0	0xbd2a04fb	-0.041508656
1	0xbc3c9e08	-0.011512287
2	0x3e6437c9	0.22286905
3	0xbe59a8ac	-0.2125575
4	0xbc9bb19e	-0.019005593
5	0xbdba9fb2	-0.09112491

weight f4 [6, 1, 1, 4]
0	0x3efb2a68	0.4905579
1	0x3f90f0b1	1.1323453
2	0x3f650d0f	0.8947305
3	0x3e86089f	0.26178452
4	0x3dff7f08	0.12475401
5	0xbed13ac4	-0.40865147
6	0xbd6bf3cb	-0.057605546
7	0x3edf35eb	0.43595824
8	0x3c0a18ec	0.008428793
9	0xbf2e704c	-0.681401
10	0xbf72786d	-0.94715005
11	0xbf26128e	-0.6487206
12	0xbcb0d23e	-0.021584626
13	0x3ee0c5d5	0.43900934
14	0x3f69140d	0.9104622
15	0x3f8c0b99	1.0941039
16	0x3ea759ca	0.3268569
17	0x3f7a84da	0.97858965
18	0x3f2783c5	0.6543544
19	0x3f42b2f9	0.7605434
20	0xbfceef5b	-1.6166795
21	0x3fd3a029	1.6533252
22	0x3f71288f	0.9420251
23	0x3f1c1b7d	0.60979444

bias f4 [6]
0	0xbeb541ef	-0.35401866
1	0xbdf4ce72	-0.11953439
2	0x3f24f19e	0.6443118
3	0xbc097064	-0.008388612
4	0xbe52560a	-0.20540634
5	0xbf388e7a	-0.720924

weight f4 [10, 6, 1, 1]
0	0xbef064a2	-0.46951777
1	0x3f0fc871	0.56165224
2	0x3f32789a	0.69715273
3	0x3e3983db	0.18116705
4	0xbe280588	-0.1640836
5	0x3e245c8d	0.1605093
6	0x3f5e3f24	0.86815095
7	0xbf065cfb	-0.52485627
8	0xbf3c0847	-0.7345013
9	0x3e983151	0.29725125
10	0x3e18030c	0.14844912
11	0x3f8e8c6e	1.1136606
12	0x3f2ab7eb	0.66686887
13	0xbda42d6d	-0.08016477
14	0xbd64e4e4	-0.05588235
15	0x3fa6b609	1.3024303
16	0xbf293c17	-0.66107315
17	0xbf9ebb0a	-1.240083
18	0x3ea750e9	0.32678917
19	0xbeac8d0c	-0.3370136
20	0xbf659c42	-0.89691556
21	0x3f642163	0.89113444
22	0xbfa66b01	-1.3001405
23	0x3eb7dd5c	0.3591107
24	0x3f50377d	0.8133467
25	0x3ed3dbb0	0.41378546
26	0xbe27e515	-0.16395982
27	0x3edcfea0	0.43163013
28	0x3fc426b5	1.5324312
29	0xbfd12e11	-1.6342183
30	0xbf8143f4	-1.0098863
31	0x3e9c6d4d	0.3055214
32	0xbe8c072a	-0.27349216
33	0xbf807cbf	-1.003807
34	0x3fb23cca	1.3924801
35	0xbf830d3e	-1.0238416
36	0x3e35b89a	0.17746201
37	0x3f0143d3	0.50494117
38	0x3f6dd99f	0.9291019
39	0x3fc7bf4a	1.5605252
40	0xbf10a416	-0.56500375
41	0x3f30b367	0.69023746
42	0xbeaa8f8b	-0.3331264
43	0xbe7badd0	-0.24578023
44	0x3ecfd98e	0.4059567
45	0xbf89e61f	-1.0773352
46	0xbd58c1b7	-0.052919116
47	0xbd9be860	-0.076126814
48	0x3e220e9e	0.15825889
49	0x3e90d7ed	0.28289738
50	0xbed4246d	-0.4143404
51	0xbfa6ce15	-1.3031641
52	0x3f5539a6	0.8329109
53	0xbe9664dc	-0.29373825
54	0x3f3eb452	0.74493897
55	0xbc76f326	-0.01507262
56	0xbef9ad5f	-0.48765084
57	0x3eaa732d	0.33290997
58	0xbefd3b74	-0.49459422
59	0xbf34c7ee	-0.7061757

bias f4 [10]
0	0x3d0db064	0.034592047
1	0xbf292c18	-0.66082907
2	0x3e70cf13	0.23516493
3	0xbef3e420	-0.47634983
4	0xbdc72020	-0.09722924
5	0x3d200030	0.03906268
6	0xbee65fd2	-0.4499498
7	0x3d955efb	0.07293507
8	0x3d8dba0f	0.069202535
9	0x3ea6e25c	0.32594573

weight f4 [7, 280]
0	0x3dc1b159	0.094576545
1	0x3da95946	0.08268981
2	0x3d98cb63	0.07460668
3	0x3d74b277	0.05974051
4	0x3d370689	0.044683967
5	0x3cf27f60	0.029601753
6	0x3c78ab88	0.015177615
7	0x3bb5abe7	0.005544174
8	0x3ba792d5	0.0051139393
9	0x3b9e2c4d	0.0048270584
10	0x3bca2198	0.0061685555
11	0x3af517e4	0.0018699137
12	0xb8ccdb63	-9.768342e-05
13	0x3b4c3972	0.003116217
14	0x3925d7ca	0.00015816014
15	0xbb8cd953	-0.004298368
16	0xbc120e58	-0.008914553
17	0xbc0149e5	-0.007891153
18	0xbc403925	-0.011732374
19	0xbc715a76	-0.01473104
20	0xbca30ea1	-0.019904437
21	0xbcaab312	-0.02083734
22	0xbcd71264	-0.026253887
23	0xbcf824a9	-0.030290918
24	0xbd039568	-0.032124907
25	0xbd219640	-0.03944993
26	0xbd26f06c	-0.040756628
27	0xbd35bc98	-0.04436931
28	0xbf8de9e6	-1.1087005
29	0x3dc55885	0.096360244
30	0x3d666444	0.056247965
31	0x3dbb0afa	0.09132953
32	0xbc352cc7	-0.011058039
33	0xbe294889	-0.16531576
34	0xbe8e1342	-0.27749068
35	0xbea5a261	-0.32350448
36	0xbea6608b	-0.3249553
37	0xbe9d551a	-0.3072899
38	0xbe70da20	-0.23520708
39	0xbe51fdc7	-0.20506965
40	0xbe0d7ab2	-0.13816336
41	0xbd18b24a	-0.037279405
42	0x3b45f024	0.003020295
43	0x3d0f201b	0.034942728
44	0x3e0d0c22	0.1377416
45	0x3e20f4d4	0.15718395
46	0x3e30a1dd	0.17249246
47	0x3e2216e4	0.15829045
48	0x3dec99b6	0.115527555
49	0x3e73bc49	0.23802294
50	0x3e566579	0.20937146
51	0x3e5d471f	0.21609162
52	0x3e563903	0.20920186
53	0x3e2e8dc0	0.17046261
54	0x3e8a53d5	0.27017084
55	0x3dc5d8ee	0.09660517
56	0x3e0ea171	0.13928773
57	0x3d0f4dcc	0.034986302
58	0x3ec8c35f	0.39211556
59	0x3ed87ce4	0.42282784
60	0x3e904f10	0.2818532
61	0x3e1fdec2	0.15612319
62	0x3d96293b	0.07332083
63	0xbb8a91d9	-0.004228812
64	0xbcb7b143	-0.022423392
65	0x3c3cc52a	0.011521617
66	0xbdbaf7e1	-0.091293104
67	0xbe0d5094	-0.1380027
68	0xbdc42317	-0.09577005
69	0xbe16253e	-0.14662644
70	0xbe4ad450	-0.19807553
71	0xbde549e8	-0.11195737
72	0xbe6dfa2e	-0.23239967
73	0xbe143f24	-0.14477211
74	0xbdece86d	-0.11567769
75	0xbd92beb4	-0.0716528
76	0xbc8e2dc3	-0.017355805
77	0xbd6467dd	-0.055763114
78	0xbe3a2e97	-0.18181835
79	0xbe348302	-0.176281
80	0xbe4203cd	-0.18946762
81	0xbdd27b1a	-0.10277386
82	0xbe2ddb0b	-0.1697809
83	0xbe20095b	-0.15628569
84	0xbf27c210	-0.6553049
85	0xbb3a0602	-0.0028384929
86	0x3e667830	0.22506785
87	0x3e78cfc4	0.24298006
88	0x3dddf99a	0.10838623
89	0xbc8e3236	-0.017357927
90	0xbda87fe7	-0.082275204
91	0xbdc5ec11	-0.09664167
92	0xbdbc3bb3	-0.09191074
93	0xbdb1064b	-0.086437784
94	0xbdaae0e8	-0.08343679
95	0xbda71566	-0.08158378
96	0xbd89182b	-0.06694063
97	0xbd6e5b00	-0.058192253
98	0xbd7ac5d8	-0.061223835
99	0xbd40b758	-0.04704985
100	0xbd5e9383	-0.054339897
101	0xbd12efc1	-0.03587318
102	0xbcb4443f	-0.022005199
103	0xbc8e0658	-0.01733701
104	0xbc319ed8	-0.010841094
105	0x3c279c33	0.010230112
106	0xbc95bafa	-0.018277634
107	0xbd0ed6ea	-0.034872927
108	0xbd231c8f	-0.039822157
109	0xbd40772c	-0.04698865
110	0xbd356749	-0.044287954
111	0xbdc44f45	-0.09585432
112	0x3f38515d	0.7199915
113	0xbe620c54	-0.22075015
114	0xbe7f06d1	-0.24904944
115	0xbe9936b7	-0.29924557
116	0xbe9719a7	-0.2951176
117	0xbe8f5792	-0.27996498
118	0xbe533e8c	-0.20629328
119	0xbe0bc7a5	-0.13650377
120	0xbdb542c4	-0.08850625
121	0xbc9dd58a	-0.019266862
122	0xbcabe02b	-0.020980915
123	0xbc3ec2ff	-0.01164317
124	0x3d15704a	0.03648404
125	0x3c139c99	0.009009504
126	0x3a932419	0.0011225968
127	0x3d50c916	0.05097302
128	0xbd02b175	-0.031907517
129	0xbca13381	-0.01967788
130	0x3cfa3816	0.030544322
131	0x3dab988d	0.08378706
132	0x3e09e411	0.13465907
133	0xba836236	-0.0010023776
134	0x3cbf3b14	0.0233436
135	0x3b8ff81f	0.004393592
136	0x3d04cedb	0.032423835
137	0x3dd73076	0.1050729
138	0x3dbecf3a	0.09316869
139	0x3dbceca2	0.092248216
140	0xbe29d63a	-0.16585627
141	0xbe80c195	-0.2514769
142	0xbdad3dc0	-0.084590435
143	0xbe00442a	-0.12526003
144	0xbe13d614	-0.14437133
145	0xbe31fdb5	-0.17381938
146	0xbe058fa1	-0.13043071
147	0xbce62e39	-0.028098213
148	0x3d1d1d08	0.038357764
149	0x3c176e6d	0.009242636
150	0x3c4063b3	0.01174252
151	0x3c06fcb0	0.008238956
152	0xbcf82496	-0.030290883
153	0xbd72b3ab	-0.059253376
154	0xbda00fb8	-0.07815498
155	0xbda5302c	-0.08065829
156	0xbd8f441e	-0.06995414
157	0xbd5d0469	-0.053959284
158	0xbd813870	-0.06309593
159	0xbd944264	-0.072392255
160	0xbda8d20a	-0.08243187
161	0xbd9df2b1	-0.07712305
162	0xbd94e9f7	-0.07271188
163	0xbd87cacb	-0.066304766
164	0xbd972bd2	-0.07381405
165	0xbdce9d77	-0.10088628
166	0xbdbfe800	-0.09370422
167	0xbdc8209a	-0.09771843
168	0xbf8f8a2c	-1.1214042
169	0x3f621592	0.88314164
170	0x3f1f5c81	0.62250525
171	0x3f16562d	0.58725244
172	0x3ec6f098	0.38855433
173	0xbc80afdb	-0.015708854
174	0xbebc58ff	-0.3678665
175	0xbf0cefad	-0.55053216
176	0xbf17cfa7	-0.5930123
177	0xbf097853	-0.53699225
178	0xbeed5693	-0.46355113
179	0xbed5ae2f	-0.41734454
180	0xbe992488	-0.29910684
181	0xbe2b05ce	-0.16701433
182	0xbddade6d	-0.106869556
183	0xbbb1b373	-0.0054230033
184	0x3dc705b3	0.09717884
185	0x3e41019f	0.18848275
186	0x3e8237e4	0.25433266
187	0x3e8d2268	0.27565312
188	0x3e8c6c9d	0.27426615
189	0x3ea570a1	0.32312492
190	0x3e830a68	0.25593877
191	0x3e8419c2	0.25800902
192	0x3e716420	0.23573351
193	0x3e62d852	0.22152832
194	0x3e75cc55	0.24003728
195	0x3d92568c	0.07145414
196	0x3df54d17	0.11977594
197	0xbdcde777	-0.10053914
198	0x3d7851e0	0.060624957
199	0x3e0772ce	0.13227388
200	0x3dcd3533	0.100199126
201	0x3d8e6cc2	0.06954338
202	0x3d90e110	0.07074177
203	0x3da3c86e	0.07997213
204	0x3d9d4fcb	0.07681235
205	0x3d5274ab	0.051380794
206	0x3d33b103	0.043869983
207	0x3cf84a13	0.030308759
208	0x3c90fd89	0.01769902
209	0x3bbc1835	0.0057401904
210	0xbbebf466	-0.0072007654
211	0xbbd92eb2	-0.006627881
212	0xbc51f0e5	-0.012813781
213	0xbc36ae1b	-0.011149908
214	0xbc30a79c	-0.010782149
215	0xbc6ed0af	-0.014576121
216	0xbb8a22f1	-0.004215591
217	0x3ba43c1f	0.00501205
218	0xbc753cc8	-0.014968105
219	0xbc93f4dc	-0.018061094
220	0xbcd3ca14	-0.025853194
221	0xbcbcaf1e	-0.023032721
222	0xbcb8d19e	-0.02256089
223	0xbcf3541f	-0.029703198
224	0xbe1c6aff	-0.15275191
225	0xbe5403dd	-0.20704599
226	0xbd84cdf3	-0.06484594
227	0xbdbebb74	-0.093130976
228	0xbdd5f7b4	-0.10447636
229	0xbdf8bef6	-0.12145798
230	0xbd94f910	-0.072740674
231	0x3cb6cc06	0.022314083
232	0x3d74e004	0.05978395
233	0x3bc726a3	0.006077604
234	0x3c8dac89	0.017294185
235	0x3c836284	0.016038187
236	0xbc978378	-0.018495306
237	0xbd2a78df	-0.041619178
238	0xbd4b7ef5	-0.049681623
239	0xbd6d2593	-0.05789716
240	0xbd425086	-0.047440074
241	0xbd4824f5	-0.04886337
242	0xbd5a8156	-0.053346
243	0xbdc1cfe6	-0.094634816
244	0xbde3b751	-0.11118949
245	0xbda5c9be	-0.0809512
246	0xbddba1bc	-0.10724208
247	0xbdfb6edf	-0.12277006
248	0xbe278ba7	-0.16361867
249	0xbe4b8b83	-0.19877438
250	0xbe435a7e	-0.19077489
251	0xbe4dfef2	-0.20116785
252	0xbdd9586e	-0.1061257
253	0xbddc8966	-0.10768394
254	0x3d88de26	0.066829965
255	0x3df94cb1	0.12172831

bias f4 [7]
0	0xbda2d92f	-0.07951581
1	0xbe41399f	-0.18869637
2	0x3ea9ec8a	0.33188277
3	0x3c633a64	0.013868902
4	0x3ead09ad	0.33796445
5	0xbec612e9	-0.38686302
6	0x3d335033	0.043777656
