e-nose-cnn/net/mobilenet1.pkl (torch_old, 30160 bytes, 6 tensors)

weight f4 [6, 10, 1, 3]
0	0xbda02075	-0.07818691
1	0xbe70169e	-0.23446128
2	0xbedae185	-0.42750183
3	0xbf0036d8	-0.50083685
4	0x3d231bea	0.039821543
5	0x3dc70710	0.09718144
6	0xbe0ed323	-0.1394773
7	0xbe5ec24b	-0.21753804
8	0x3dc794a7	0.0974515
9	0xbe8c1968	-0.27363133
10	0xbf0f4791	-0.55968577
11	0xbf0682d9	-0.5254341
12	0xbdc5f365	-0.096655644
13	0x3df64993	0.12025752
14	0x3d6d3e79	0.057920907
15	0x3eb9c059	0.36279562
16	0x3e333948	0.1750232
17	0xbd5801d3	-0.052736115
18	0x3d2dc357	0.04242262
19	0x3da45726	0.08024435
20	0xbe042358	-0.12904108
21	0x3d58d7e8	0.05294028
22	0xbd9952e0	-0.0748651
23	0xbb9eb497	-0.0048433053
24	0xbee30b88	-0.44344735
25	0xbba1eaed	-0.0049413354
26	0xbe0fa5b2	-0.14028051
27	0xbf6ad258	-0.9172721
28	0xbf5cfec0	-0.8632622
29	0xbe595615	-0.21224244
30	0x3ee2bb76	0.44283646
31	0x3d375e46	0.04476764
32	0x3f06dbac	0.5267894
33	0x3f59e9a1	0.85122114
34	0x3ee182f9	0.44045237
35	0x3f21252e	0.62947357
36	0xbe5a03df	-0.21290539
37	0xbe59ff20	-0.21288729
38	0xbe432f82	-0.19061092
39	0xbee40e18	-0.44542003
40	0x3d0bf53c	0.03416942
41	0xbdec5ef3	-0.115415476
42	0xbdec65b7	-0.11542838
43	0x3db2cdf7	0.08730691
44	0x3d9494ce	0.07254945
45	0xbf366fcc	-0.7126434
46	0xbe58a9e7	-0.21158563
47	0xbe565ae6	-0.20933113
48	0xbedf7afc	-0.43648517
49	0xbec28af6	-0.37996644
50	0xbe89a65e	-0.2688474
51	0xbd82c7d0	-0.063857675
52	0xbe2e88f3	-0.1704443
53	0xbeda8d90	-0.4268613
54	0xbeb1f72b	-0.34758887
55	0xbec304bb	-0.38089547
56	0x3ea9b9dd	0.33149615
57	0x3f1a1a71	0.60196596
58	0x3ee855cb	0.45377955
59	0xbe84302a	-0.25817996
60	0x3e89f4c4	0.26944554
61	0xbce950b0	-0.028480858
62	0xbe57f81f	-0.21090744
63	0x3ea5d4f5	0.32389036
64	0xbc2b4836	-0.010454228
65	0xbdca84e3	-0.098886274
66	0xbe52158a	-0.20516029
67	0xbd4bbe82	-0.04974223
68	0xbea2f4c9	-0.3182738
69	0xbeb8655b	-0.36014828
70	0xbf1d9ddb	-0.61568993
71	0xbf01309b	-0.5046479
72	0x3c8f9292	0.017525945
73	0xbe6a2345	-0.22865017
74	0xbdbddc26	-0.092705056
75	0x3e0d888c	0.1382162
76	0x3da118c1	0.078660496
77	0x3e688f2f	0.2271087
78	0x3dab085a	0.08351202
79	0x3dc0adf7	0.09408181
80	0x3e4f59fe	0.20249173
81	0xbe7afaeb	-0.2450978
82	0xbea1f9b0	-0.3163581
83	0xbef23556	-0.47306317
84	0x3ec304d2	0.38089615
85	0x3f32a084	0.6977618
86	0x3f27ac16	0.6549696
87	0x3f02fd6d	0.5116795
88	0xbdbfccec	-0.093652576
89	0x3ed58c40	0.41708565
90	0xbcc4e4d0	-0.024034888
91	0x3df6c9ab	0.12050184
92	0x3e81122e	0.25209183
93	0xbf88cfe1	-1.068844
94	0xbf72b10e	-0.94801414
95	0xbf91e989	-1.1399394
96	0x3e72725f	0.23676442
97	0xbe5694be	-0.20955178
98	0x3edb7f44	0.42870533
99	0xbead18ca	-0.33807975
100	0x3e818579	0.25297144
101	0xbc9de8e8	-0.019276097
102	0xbdba2c3f	-0.090904705
103	0x3e157a0e	0.14597341
104	0x3ee71c61	0.4513884
105	0xbda4c54c	-0.08045444
106	0x3e44671b	0.19179957
107	0xbe04726a	-0.1293427
108	0xbdaa5374	-0.08316699
109	0x3c47b378	0.012188785
110	0xbf26f8bd	-0.65223294
111	0xbdc0f5c6	-0.094218776
112	0xbcd6a6d1	-0.026202591
113	0xbdf10c9e	-0.11769985
114	0x3e927dad	0.28611508
115	0x3e190c5d	0.14946122
116	0xbdb66974	-0.08906832
117	0x3f15dcb0	0.5853987
118	0x3ec8227b	0.39088807
119	0x3f5c8781	0.8614426
120	0x3ecae68e	0.39629024
121	0xbe8fc2d8	-0.2807834
122	0xbe0532a6	-0.13007602
123	0xbe69a837	-0.22818075
124	0x3e89a0d7	0.26880524
125	0xbe3af7af	-0.18258546
126	0xbe8066d7	-0.2507846
127	0xbd72d046	-0.059280656
128	0x3e8b1759	0.2716625
129	0xbf64fc20	-0.8944721
130	0xbf1626d2	-0.58652985
131	0xbe955391	-0.2916532
132	0xbe68c6c6	-0.22732076
133	0x3e39db5d	0.18150087
134	0x3eb5b1f2	0.35487324
135	0x3f25a2f6	0.64701784
136	0x3f13025b	0.5742547
137	0x3f77cfad	0.96801263
138	0xbe89828f	-0.2685742
139	0x3d26b130	0.040696323
140	0xbeb91a43	-0.3615285
141	0xbee53655	-0.44768015
142	0xbef89899	-0.48553923
143	0x3d9a0a75	0.07521526
144	0x3ea7493d	0.32673064
145	0x3ec9fc03	0.39450082
146	0x3eaac7b5	0.3335549
147	0xbf0224ed	-0.50837594
148	0xbeb06c9c	-0.34457862
149	0xbf16c32a	-0.58891547
150	0xbc6c2fbf	-0.01441568
151	0xbd58f78a	-0.052970447
152	0xbe2bfcce	-0.16795656
153	0xbed8f383	-0.42373285
154	0xbe69832b	-0.22803943
155	0xbe6de488	-0.23231709
156	0xbea335d8	-0.31877017
157	0xbe1e6981	-0.15469934
158	0x3d24d5b6	0.040242873
159	0xbf1d0bdc	-0.6134622
160	0xbe93053a	-0.28714925
161	0xbf60bc10	-0.8778696
162	0xbdd6c394	-0.10486522
163	0x3d81b659	0.06333608
164	0x3e0cda20	0.13755083
165	0xbf20aab3	-0.62760466
166	0xbf12c76d	-0.5733555
167	0xbf305d65	-0.6889251
168	0x3e61bb9e	0.22044227
169	0xbc968944	-0.018376
170	0xbe1706e2	-0.1474872
171	0x3e8f0253	0.2793146
172	0x3f29c079	0.66309315
173	0x3e40ef01	0.18841173
174	0x3df0e17a	0.11761756
175	0x3dbffb4b	0.09374102
176	0xbe7f170b	-0.24911134
177	0xbf234b08	-0.63786364
178	0xbf39e24e	-0.7261094
179	0xbeca7f1d	-0.39550105

bias f4 [6]
0	0x3e5ee8ff	0.21768568
1	0x3b38f7d7	0.0028223896
2	0x3d1baed1	0.038008515
3	0x3f01d646	0.5071758
4	0x3e73a4d3	0.23793344
5	0x3ee3051e	0.44339842

weight f4 [10, 6, 1, 3]
0	0xbea3b627	-0.3197491
1	0x3e394330	0.18092036
2	0xbe549a10	-0.20761895
3	0xbe33abaf	-0.17545961
4	0x3b47cd33	0.0030487298
5	0xbe8202c3	-0.25392732
6	0x3e19fddb	0.15038244
7	0xbe923269	-0.28554085
8	0xbe09f07b	-0.13470642
9	0x3e92b068	0.28650212
10	0x3f06b6c5	0.52622634
11	0x3f5d0a76	0.8634409
12	0x3f190999	0.5978027
13	0x3ed21186	0.41028994
14	0x3d2713e0	0.04079044
15	0xbca38e21	-0.019965233
16	0xbec0f02d	-0.3768324
17	0x3db7ef17	0.0898115
18	0x3d5bf9b7	0.053704944
19	0x3e07f45b	0.13276808
20	0xbe170d39	-0.14751138
21	0x3e669d79	0.22521009
22	0xbdb6021b	-0.0888712
23	0x3ec642ad	0.38722745
24	0x3dfeb792	0.12437357
25	0xbe8eda60	-0.27900982
26	0xbd1babc1	-0.038005594
27	0xbee7f64a	-0.4530509
28	0xbe6d19ab	-0.23154323
29	0x3e8f425b	0.27980313
30	0x3e9aa879	0.3020666
31	0x3dd2d256	0.10294025
32	0xbe329e84	-0.17443281
33	0xbe883d86	-0.2660944
34	0x3eb3443a	0.3501299
35	0x3e9e6160	0.30933666
36	0xbe57d470	-0.21077132
37	0x3ea46fb2	0.32116467
38	0x3e578c43	0.210496
39	0xbda64aab	-0.081197105
40	0x3e034603	0.12819676
41	0xbdc3b992	-0.09556879
42	0xbe8c6a8f	-0.27425048
43	0x3d51af52	0.05119259
44	0x3ebbaf1f	0.36657044
45	0x3daa6b71	0.08321274
46	0xbe09ba76	-0.13450035
47	0xbc132264	-0.008980367
48	0xbeb27f4c	-0.34862745
49	0xbe543087	-0.20721637
50	0x3e1f876b	0.15579002
51	0x3db5a680	0.08869648
52	0x3d77cdff	0.060499188
53	0xbdf2f8cc	-0.118638605
54	0xbdc2b1d3	-0.095065735
55	0xbdf41992	-0.1191894
56	0xbea5799c	-0.32319343
57	0x3f2b29a1	0.66860396
58	0x3f21f440	0.6326332
59	0x3eb1fb7f	0.3476219
60	0xbea52c47	-0.32260343
61	0xbeb3d980	-0.35126877
62	0xbea2d0de	-0.31799978
63	0xbf02218b	-0.5083243
64	0xbea65fac	-0.32494867
65	0xbe398e72	-0.18120745
66	0x3ce312bc	0.027718894
67	0xbcbcfb25	-0.023068974
68	0x3e454d69	0.19267811
69	0x3ebd58dd	0.3698186
70	0xbdbfffe9	-0.09374983
71	0x3da1b7e0	0.078963995
72	0x3f47a842	0.77991116
73	0x3efc711e	0.49305052
74	0x3f10ecf5	0.5661157
75	0xbf2021ee	-0.6255177
76	0xbd5257bc	-0.0513532
77	0xbe394c06	-0.18095407
78	0xbd202e38	-0.039106578
79	0xbe850962	-0.2598372
80	0xbd4aaa56	-0.04947885
81	0xbe5c329e	-0.21503684
82	0xbe97f374	-0.29677927
83	0xbef3647d	-0.47537604
84	0x3e610870	0.21975875
85	0x3f00e2c3	0.5034601
86	0x3f30ee82	0.69113934
87	0x3e1370c2	0.14398482
88	0x3f1128a8	0.5670266
89	0x3efda26f	0.4953799
90	0xbf098741	-0.53722006
91	0xbe1702f5	-0.14747222
92	0xbce13c53	-0.027494585
93	0xbe34f8ae	-0.17672989
94	0xbf2ada4a	-0.6673933
95	0xbf05fcb2	-0.5233871
96	0x3ed149dd	0.40876666
97	0x3f145e98	0.5795684
98	0x3efdc2f4	0.495628
99	0x3f16faf4	0.58976674
100	0x3f54ed17	0.8317427
101	0x3f7f6a4e	0.99771583
102	0xbe9e1a12	-0.30879265
103	0xbe3be6cd	-0.18349762
104	0xbe31a1d1	-0.17346884
105	0xbe90c588	-0.28275704
106	0x3d2565c5	0.040380258
107	0x3f370791	0.7149592
108	0x3ed7ac46	0.42123622
109	0x3d880d18	0.066431224
110	0xbe6196c5	-0.2203017
111	0xbf0c8ae3	-0.54899424
112	0xbe854b6e	-0.2603411
113	0x3e01b8f5	0.12668212
114	0x3f062dd1	0.5241366
115	0x3f075e6b	0.52878445
116	0x3f0cff9f	0.55077547
117	0xbdce0ee9	-0.10061438
118	0x3ed89b09	0.42305782
119	0x3dcb62dc	0.09930965
120	0x3ede15c9	0.43375996
121	0x3f2db9a7	0.6786141
122	0x3eeac7ea	0.45855647
123	0x3efc1193	0.49232158
124	0x3ec50bec	0.38485658
125	0xbebee21b	-0.3728188
126	0x3cf33fab	0.029693445
127	0x3da2c657	0.079479866
128	0xbe8dac85	-0.27670684
129	0xbe985564	-0.29752648
130	0xbc153a98	-0.009108208
131	0x3c728792	0.01480283
132	0x3d7919a3	0.060815465
133	0xbdcf4267	-0.10120087
134	0x3e4eaf26	0.20184001
135	0xbe6b9455	-0.23005803
136	0xbe44b0a4	-0.19208008
137	0x3ebc6be7	0.36801073
138	0xbec6ec34	-0.38852084
139	0xbf2e2f9e	-0.6804141
140	0xbef5415b	-0.47901425
141	0x3f8087eb	1.0041479
142	0x3f41914a	0.7561232
143	0x3f2049d5	0.6261266
144	0xbeaa7f5b	-0.3330029
145	0xbed6797c	-0.4188956
146	0xbdf99004	-0.12185672
147	0xbe030b66	-0.12797317
148	0x3e956af7	0.2918317
149	0x3ed99635	0.4249741
150	0xbdd93640	-0.106060505
151	0xbe59f793	-0.21285848
152	0xbeb034e4	-0.34415352
153	0xbba98824	-0.0051737
154	0x3e3bd4a7	0.18342839
155	0x3e7729a0	0.24136972
156	0x3eb77509	0.35831478
157	0xbe8ef62e	-0.27922195
158	0xbe269b0b	-0.16270082
159	0x3d9743b1	0.07385958
160	0xbf1a2d49	-0.6022535
161	0xbef0aefa	-0.47008497
162	0x3f103c19	0.563417
163	0xbe838c47	-0.2569296
164	0xbeb8e929	-0.36115387
165	0xbee1b630	-0.4408431
166	0x3e960274	0.29298747
167	0x3daddd01	0.08489419
168	0x3e7254df	0.23665188
169	0x3d37f243	0.044908773
170	0xbe78de7f	-0.24303626
171	0x3dae6d13	0.08516898
172	0x3e4fea61	0.20304252
173	0xbe32474a	-0.17410007
174	0x3e868ef0	0.26280928
175	0xbf0a1172	-0.5393287
176	0xbe37088c	-0.17874354
177	0x3f12eaf9	0.5738979
178	0xbd611e94	-0.054960802
179	0xbbd94eb9	-0.006631699

bias f4 [10]
0	0x3dcfcab6	0.10146086
1	0x3c96aee6	0.018393945
2	0x3d9cb05e	0.07650827
3	0x3e404b84	0.18778807
4	0xbc78a89f	-0.015176921
5	0x3c800230	0.015626043
6	0xbe64e1e3	-0.22351794
7	0x3ecd4a39	0.4009569
8	0x3ea86965	0.3289291
9	0xbbb4ee41	-0.005521566

weight f4 [7, 570]
0	0xbdf805f9	-0.12110514
1	0xbe008136	-0.1254929
2	0xbd8ed4f9	-0.06974215
3	0xbd478500	-0.048710823
4	0xbd2da8f2	-0.042397447
5	0xb9a92807	-0.00032264015
6	0x3d4e79ee	0.05040925
7	0x3d63efef	0.05564874
8	0x3d3dd3fe	0.04634475
9	0x3b87d770	0.004145555
10	0xbbca1343	-0.006166847
11	0xbd852e77	-0.06503003
12	0xbda62300	-0.081121445
13	0xbd9b88ec	-0.07594475
14	0xbded58e6	-0.11589222
15	0xbe1319dd	-0.14365335
16	0xbe20d188	-0.1570493
17	0xbe2a7f41	-0.16650106
18	0xbe247502	-0.1606026
19	0xbe0dfadc	-0.13865227
20	0xbe0bc48a	-0.13649192
21	0xbe01a619	-0.12661017
22	0xbdd46716	-0.103712246
23	0xbddcccf7	-0.107812814
24	0xbdc29b06	-0.095022246
25	0xbd916eec	-0.07101235
26	0xbd83a901	-0.06428719
27	0xbd7662d2	-0.060152836
28	0xbd926331	-0.071478255
29	0xbd668fdc	-0.05628954
30	0xbd7c6e75	-0.061628778
31	0xbd16cc57	-0.036815967
32	0xbce782cd	-0.028260613
33	0xbc28df09	-0.010307082
34	0xbb669df3	-0.003518936
35	0xbcd7d4a0	-0.026346505
36	0xbbbbf7a2	-0.0057363072
37	0x3b8dd326	0.0043281494
38	0xb9c0401b	-0.00036668856
39	0x3ce2a266	0.027665328
40	0x3cdbc9fe	0.026829716
41	0x3d0e6aa7	0.03476968
42	0x3d39cf04	0.04536344
43	0x3d8e9e0e	0.0696374
44	0x3d78b90d	0.060723353
45	0x3d785145	0.06062438
46	0x3da37490	0.07981217
47	0x3db0b406	0.08628087
48	0x3dd60b06	0.10451321
49	0x3daa5271	0.08316506
50	0x3de75e84	0.11297324
51	0x3debf7b4	0.11521855
52	0x3e012699	0.1261238
53	0x3deb2748	0.11482102
54	0x3e0ac1d1	0.13550498
55	0x3e117cf6	0.14207825
56	0x3d975e9e	0.07391094
57	0xbc9e555b	-0.01932781
58	0xbd288116	-0.04113873
59	0xbda4966a	-0.08036502
60	0xbd83ed69	-0.06441767
61	0xbd62f39d	-0.05540811
62	0x3c2c29b9	0.010507994
63	0xbba08dc2	-0.0048997113
64	0x3b98be7d	0.00466138
65	0xbb95d691	-0.0045726974
66	0xbc3f0da2	-0.011660965
67	0xb9525016	-0.00020056995
68	0x3bfccb0e	0.0077146357
69	0x3c0c8b81	0.008578182
70	0xbc421d5c	-0.01184782
71	0xbc89bad2	-0.016812716
72	0xbce8033f	-0.02832186
73	0xb94a4ac4	-0.00019292074
74	0x3b740995	0.0037237157
75	0xbcaeaaf7	-0.021321757
76	0xbc85559f	-0.016276179
77	0xbce1a4ef	-0.027544467
78	0xbc1ba567	-0.009499884
79	0xbd3c9a69	-0.046045695
80	0xbcb93354	-0.022607483
81	0xbd47d6d8	-0.048788875
82	0xbcaf9aa8	-0.02143605
83	0xbd3b52ec	-0.045733377
84	0xbd0a391f	-0.03374588
85	0xbd1a532e	-0.037676983
86	0xbd0726f7	-0.032996144
87	0xbc27175f	-0.010198443
88	0xbbbfd95f	-0.00585477
89	0x3c1b127a	0.009464854
90	0xbc1e8be3	-0.009676906
91	0xbc7484c1	-0.014924229
92	0xbc4a2003	-0.012336734
93	0x3bcb846b	0.006210854
94	0xbb5fd2c4	-0.0034152726
95	0xbc5ba29e	-0.01340547
96	0xbc350fd2	-0.011051135
97	0x3b3917bc	0.0028242907
98	0xbd01d2f5	-0.031695325
99	0xbbf6a8ea	-0.0075274603
100	0xbc4bea94	-0.0124460645
101	0xbc1b6b5c	-0.009486046
102	0xbc4756c8	-0.012166686
103	0xbca41287	-0.020028366
104	0xbc047415	-0.008084317
105	0x3921051b	0.00015356058
106	0x3c26f73c	0.010190781
107	0xbcc4ea93	-0.024037635
108	0xbb91f3e7	-0.0044541243
109	0xbc8ca546	-0.017168652
110	0xbc78d038	-0.015186362
111	0xbbccf5da	-0.0062548937
112	0xbc1ecfdd	-0.009693113
113	0xbd426836	-0.047462665
114	0xbced3495	-0.028955737
115	0x3c1efe15	0.009704133
116	0xbc186dff	-0.009303569
117	0xbb7c63e0	-0.0038511679
118	0xbca1e7b6	-0.019763809
119	0xbcd95fc8	-0.02653493
120	0xbbe5bcd1	-0.007011034
121	0xbc60bf5f	-0.013717501
122	0xbcd0302d	-0.025413597
123	0x3b07852e	0.0020678747
124	0x39b0228a	0.0003359507
125	0xbc105449	-0.008809158
126	0x3af8579e	0.001894701
127	0xbaa9baf5	-0.0012949394
128	0xbc5807dc	-0.013185468
129	0xbc3161df	-0.010826557
130	0x3bb02967	0.0053760293
131	0xbb3ef595	-0.0029138078
132	0xbbf32c0a	-0.0074210213
133	0x3b8e4bc7	0.0043425295
134	0xbc2d9bbf	-0.010596215
135	0x3ba3c944	0.004998358
136	0xbaa1b72d	-0.0012337916
137	0xbc15ba1c	-0.00913861
138	0xbafc0514	-0.0019227588
139	0xbad3da83	-0.0016163144
140	0xbaec110f	-0.0018010455
141	0x3c5e4969	0.013567307
142	0xb91ed7f2	-0.000151485
143	0xbbf2c371	-0.0074085523
144	0x3c04807c	0.008087274
145	0x3bd05923	0.006358282
146	0xbbd697bf	-0.0065488513
147	0x3a9f51d8	0.0012155129
148	0x3b950613	0.0045478432
149	0xbbf7f84b	-0.0075674406
150	0x3c20ce51	0.009814815
151	0x3c14f3f4	0.009091366
152	0xbc731d36	-0.014838507
153	0xbae3342f	-0.0017334278
154	0x3bc63124	0.0060483385
155	0x3be8f52b	0.0071093044
156	0x3bd7bea3	0.006584005
157	0xbc7d312b	-0.015453617
158	0x3b09faf1	0.0021054114
159	0x3c44fc91	0.012023107
160	0x3cd1fb8b	0.02563264
161	0x3c17483c	0.009233531
162	0xb93dcf24	-0.0001810161
163	0xbc6c0c57	-0.014407239
164	0xbc750481	-0.014954687
165	0x3ba2b3dd	0.004965289
166	0x3c22aef5	0.009929408
167	0x3c116cb5	0.008876015
168	0xbb9a6387	-0.0047115716
169	0xbbcb31b0	-0.0062009916
170	0x3c09a310	0.008400694
171	0x3caf4368	0.021394446
172	0x3d3dc313	0.046328615
173	0x3d26568d	0.040609885
174	0x3d30b208	0.043138534
175	0x3d2219e9	0.03957549
176	0x3dc3db11	0.09563268
177	0x3dd0e303	0.10199549
178	0x3dcef964	0.10106161
179	0x3e0e65a4	0.1390596
180	0x3dbb03e5	0.09131602
181	0x3db3a030	0.08770788
182	0x3d99ad6e	0.07503782
183	0x3d9a5695	0.075360455
184	0x3ca9af09	0.020713346
185	0x3ca57656	0.020198029
186	0x3c111a6f	0.0088564
187	0xbb888274	-0.004165942
188	0xbce1a8ba	-0.027546275
189	0xbce73490	-0.028223306
190	0xbd6af1ef	-0.057359632
191	0xbd9cf664	-0.07664183
192	0xbdc4db81	-0.096121795
193	0xbdeb2df2	-0.11483373
194	0xbdf37660	-0.118878126
195	0xbe01ac6a	-0.12663427
196	0xbda75809	-0.08171088
197	0xbdc46b36	-0.09590761
198	0xbd0ce420	-0.034397244
199	0xbcf590cc	-0.029976271
200	0xbd04c4ee	-0.03241437
201	0xbcd9f7f4	-0.026607491
202	0xbc979734	-0.018504716
203	0xbca492f1	-0.020089598
204	0x3b84d61a	0.004053843
205	0xbc07ab48	-0.008280583
206	0xbc3d86da	-0.011567796
207	0x3a8f7093	0.0010943584
208	0xbb9def01	-0.0048197513
209	0xbc6eff3e	-0.014587222
210	0x3bb4fe3a	0.00552347
211	0x3c5cd5ef	0.01347874
212	0x3c0f75fd	0.008756158
213	0x39b7cc43	0.00035056667
214	0x399e6108	0.00030208402
215	0xbc71068a	-0.014711032
216	0x3b7a3282	0.0038177078
217	0x3a8b6d85	0.0010637498
218	0x3aee627a	0.0018187307
219	0xbb37b48c	-0.0028031198
220	0x3b87bb99	0.0041422364
221	0x3c01481f	0.00789073
222	0xbc552784	-0.01300991
223	0x3be99b7b	0.0071291304
224	0x3b27f84b	0.0025630172
225	0xba9666c7	-0.0011474722
226	0x3962c3b0	0.00021625939
227	0x3c320ba2	0.010867031
228	0x3e4ae67f	0.1981449
229	0xbeb7d035	-0.35901037
230	0xbeb4e6c0	-0.35332298
231	0xbe8e8d5c	-0.27842224
232	0xbe8f849a	-0.28030854
233	0xbe702e47	-0.23455153
234	0xbe59f095	-0.21283181
235	0xbe3f5c17	-0.18687473
236	0xbe2f489b	-0.1711754
237	0xbe1af294	-0.15131599
238	0xbe115df1	-0.14195992
239	0xbe0e1c86	-0.13878068
240	0xbe0a8f39	-0.13531198
241	0xbe0f907c	-0.1401996
242	0xbe06c974	-0.13162786
243	0xbde8fa94	-0.11375919
244	0xbdc0dc09	-0.094169684
245	0xbdc4c518	-0.09607905
246	0xbdc1ea42	-0.09468509
247	0xbdbb95fa	-0.09159465
248	0xbd9d324b	-0.07675608
249	0xbd85a7e6	-0.06526165
250	0xbd0742c1	-0.033022646
251	0xbcd8dc50	-0.02647224
252	0xbcc1e8f6	-0.023670655
253	0xbd38f531	-0.045155708
254	0xbdb98641	-0.0905881
255	0xbdf67d7a	-0.120356515

bias f4 [7]
0	0xbd9d7271	-0.076878436
1	0x3d01e0ba	0.031708457
2	0x3c3875d4	0.011258561
3	0xbcab858c	-0.020937704
4	0x3dba3e8b	0.090939604
5	0xbdb53046	-0.08847098
6	0x3cde4266	0.02713127
