e-nose-cnn/net/mobilenet_9142.pkl (torch_old, 23179 bytes, 10 tensors)

weight f4 [10, 1, 1, 3]
000000 05 5d fc be 71 39 f9 be e5 3d 18 bf 01 d3 f9 3f
       -0.49289718 -0.48676637 -0.59469444 1.9517518
000010 e7 d4 19 40 81 a4 0a 40 ab 2e 27 bf 60 9d fa bd
       2.4036195 2.1662905 -0.65305585 -0.12237048
000020 f7 80 58 be 0f 5c 10 40 1c 03 0a 40 c0 6a 0f 40
       -0.21142946 2.2556188 2.1564398 2.2408905
000030 c6 85 9b 3f 23 3e a3 3f 6f 61 da 3f c3 af 62 3f
       1.21502 1.2753338 1.7060984 0.8854944
000040 5e 45 5f 3f 66 7d 95 3f 40 29 bf bf 1d 89 87 bf
       0.8721522 1.1678894 -1.4934464 -1.0588719
000050 ea e4 80 be 13 c1 f0 3f 01 c8 c3 3f 4f 16 f8 3f
       -0.25174648 1.8808922 1.5295411 1.9381808
000060 f3 f7 e5 bf e3 0b aa bf 75 18 70 bf d0 69 18 40
       -1.7966293 -1.3284878 -0.9378732 2.3814583
000070 a4 4f 6f 3f d8 0a 4c 3f
       0.93480897 0.79704046

bias f4 [10]
000000 03 e7 b6 be 10 8a 85 3e d1 5a ec ba 30 8c b1 3e
       -0.35723123 0.26081896 -0.0018032436 0.34677267
000010 c9 a2 bd bd 24 63 ea 3e 07 c4 b1 be 63 13 a2 3e
       -0.092595644 0.45778763 -0.3471987 0.31655416
000020 43 b3 69 3e 95 18 80 3e
       0.22822289 0.25018755

weight f4 [6, 10, 1, 1]
000000 94 cd 16 3f fd 69 c8 3f 67 ef b8 be 54 ea d5 3c
       0.5890744 1.5657345 -0.3612015 0.026112713
000010 f0 e3 be bf 2b 3b 3f bf 6a d8 b7 bf 5b 50 dc 3e
       -1.4913311 -0.7469966 -1.4362919 0.43030056
000020 88 fa 5b 3f 3f 49 b0 bf 81 3a db be ad 64 69 bf
       0.85929155 -1.3772353 -0.42818072 -0.91169244
000030 f2 d6 10 3e ab d1 06 c0 89 a6 bf 3f ed f6 db bd
       0.14144495 -2.106547 1.4972697 -0.10740457
000040 28 29 d9 be 69 38 c9 3f c4 b2 db bf b7 64 46 bf
       -0.42414212 1.572034 -1.716393 -0.7749743
000050 84 ab 52 be 1e 2e 6a bf c7 66 91 be 3c fe 13 3f
       -0.2057324 -0.9147662 -0.28398725 0.57809806
000060 c5 8a a3 be 9e c9 76 3f b2 c4 99 3e 84 43 fd 3f
       -0.3194181 0.96401393 0.3003288 1.9786229
000070 b9 fb 12 3f 6f 20 88 3f ee ad ea 3e 72 11 a6 be
       0.5741535 1.0634898 0.45835823 -0.32435185
000080 43 2e 4a be 3a 26 f5 be a0 d7 bf 3e ae 36 0e bf
       -0.1974421 -0.47880727 0.37469196 -0.55552185
000090 fa bc 6f bd 8b d1 48 3d 77 be cc 3e f7 03 05 be
       -0.05852983 0.04902796 0.39989063 -0.12989794
0000a0 e7 06 c7 3e bb 02 17 3f 21 08 b5 3e e1 a1 11 bf
       0.38872454 0.5898854 0.35357764 -0.5688763
0000b0 4b ab e4 bc 06 2b 52 bd 25 c8 3e 3e d5 28 2d 3f
       -0.02791371 -0.05131056 0.18631037 0.6764043
0000c0 cb 35 1a be 93 4f 24 be 44 26 97 3e 5b 92 ce be
       -0.15059583 -0.1604598 0.29521382 -0.40346035
0000d0 ff c4 d6 3e a9 29 ef 3c 61 03 0f bf 0b 31 96 3f
       0.4194717 0.02919467 -0.5586453 1.1733717
0000e0 01 1e 58 3e 6b fd 62 3e 32 cf 8b 3f 3e 7f 8b bf
       0.21105196 0.22166984 1.0922606 -1.0898206

bias f4 [6]
000000 be 32 ae 3d e1 72 32 40 aa b3 37 bf 01 f8 de 3c
       0.08505772 2.7882617 -0.7175852 0.027217867
000010 ce 28 2f bd 8d 4b eb be
       -0.042763524 -0.45956078

weight f4 [6, 1, 1, 4]
000000 97 79 df 3e f3 1a f1 3f bb a6 cb bd 8b 8b 49 bf
       0.43647453 1.8836349 -0.09943911 -0.7872855
000010 d4 b4 64 3d 15 53 dd bd 26 7b 8d 3f 5f f8 8e 3f
       0.055836514 -0.10806862 1.1053207 1.1169547
000020 4f bd 3c 3f cf cf ec bc 4d 40 16 3f 11 b7 45 3e
       0.7372636 -0.028907685 0.58691865 0.19308116
000030 c6 cd c8 be 91 7c e7 3d 5f 92 8b 3c df 32 c5 3e
       -0.39219493 0.11303056 0.017037569 0.38515374
000040 8e e6 dd 3e c1 01 93 3e f3 eb 02 3f 01 de eb bd
       0.43339962 0.28712276 0.5114128 -0.11516953
000050 a8 0b 94 bf e1 01 16 bf 96 b4 09 bf ca 33 83 bc
       -1.1566057 -0.58596617 -0.5379118 -0.016015906

bias f4 [6]
000000 25 01 c3 3e 1d 77 62 3f 03 f9 8f be b5 83 1a 3d
       0.3808681 0.88463 -0.28119668 0.037723262
000010 21 10 6b be 59 31 95 3f
       -0.22955371 1.1655685

weight f4 [10, 6, 1, 1]
000000 58 c3 90 bf c9 78 9f bd b6 8c 17 bf 83 de bf be
       -1.1309614 -0.0778671 -0.5919908 -0.3747445
000010 af 76 3c bd d2 50 27 be 23 4f e6 3e b5 db 76 bf
       -0.046011623 -0.16339424 0.44982252 -0.96428996
000020 54 a2 40 bf 60 47 ab 3e 3b 97 30 be b7 61 0f 3e
       -0.75247693 0.33452892 -0.1724519 0.14002119
000030 c9 89 03 3f f5 4a c5 bf 77 6d 6e 3f 7c cc 68 3d
       0.5138212 -1.54135 0.9313578 0.056835636
000040 71 a7 1b bf eb 6e 02 bf 07 8b f1 bf b4 e4 42 3f
       -0.6080237 -0.509505 -1.8870553 0.76130223
000050 b0 88 08 bf cf 36 d1 3c 17 7c 35 bf 5e d6 87 3e
       -0.5333357 0.02553883 -0.7089247 0.26530737
000060 f1 d2 f8 3f 64 6a a7 bf ed 1a 50 be 62 ff 6f bd
       1.9439374 -1.3079343 -0.20322771 -0.05859316
000070 1f e2 84 be a0 ef 23 3f ba 08 7f 3f 23 34 80 be
       -0.25953767 0.64037514 0.9962269 -0.25039777
000080 75 5e 87 3f 5b 14 1c be 39 61 83 be da dc ae bf
       1.0575701 -0.1524214 -0.25660113 -1.3661149
000090 0c ec b4 bf ea 26 5f 3f cb 04 4b 3f c3 a6 70 3e
       -1.4134536 0.87168753 0.7930419 0.23501115
0000a0 98 09 59 be 83 d6 d0 3e a7 c8 0f c0 67 ef fe 3e
       -0.21195066 0.4078866 -2.2466218 0.49792024
0000b0 cd a4 5e 3e 67 f3 0a bf 0b 57 f2 be 3e a2 81 bf
       0.21742554 -0.5427765 -0.47332034 -1.0127637
0000c0 1c cf 5c be 77 1e a7 3f 69 dd 5f bf c3 f7 ef 3e
       -0.21563381 1.3056172 -0.8744722 0.46868715
0000d0 b3 f2 35 3f f4 9d 46 be 4a d6 a1 bf ec 3c 07 bf
       0.71073455 -0.19396192 -1.2643521 -0.52827334
0000e0 3b 9c 69 3f b9 d2 96 3e 24 9c 00 3f f7 80 ca be
       0.91254014 0.29457644 0.5023825 -0.39551517

bias f4 [10]
000000 77 a2 62 3f 71 21 1e 3f 21 d9 0a 3f aa bf d4 3f
       0.8852915 0.6176978 0.5423756 1.6620991
000010 bc 4a 05 bf de 56 74 be 61 97 59 bf 7a 40 66 3f
       -0.5206716 -0.23861262 -0.8499661 0.89942133
000020 2e 4e 62 bf e7 c5 00 bc
       -0.8840054 -0.007859684

weight f4 [7, 280]
000000 55 d0 35 be 1a 86 c0 bd c3 9f 4b 3e dc 51 36 3f
       -0.17755254 -0.09400578 0.19885163 0.7121866
000010 2f af 0b 3f 30 a6 aa 3e 41 5a 4a 3e c7 a1 d1 3c
       0.54564184 0.33329916 0.19760992 0.025589837
000020 45 33 ca bd d0 6c e3 bd 3c 8d c7 bd 2f fe 80 bd
       -0.0987306 -0.11104739 -0.09743735 -0.06298482
000030 73 32 9a bd ea 47 3a 3a 2d b6 33 3b ba fc cc 3b
       -0.07529154 0.0007106053 0.0027421818 0.0062557133
000040 64 1e de 3c 36 37 15 3c aa 33 b7 3c 29 87 d7 bc
       0.0271141 0.009107402 0.022363503 -0.026309567
000050 de 67 25 bd 5c f2 90 bd 78 21 a1 bd 12 c1 b4 bd
       -0.04038226 -0.070774764 -0.07867712 -0.08825888
000060 4b 24 aa bd 0c 18 6e bd 58 35 c9 bc f6 fa 13 3d
       -0.083077036 -0.0581284 -0.02456157 0.036128007
000070 82 ae 7b bd 80 84 51 be 1f 20 97 be 27 06 50 be
       -0.06144572 -0.20460701 -0.29516694 -0.20314847
000080 ae 8b 56 3e 9a 80 e7 3e e6 ef 99 3e 09 c9 78 3e
       0.20951721 0.45215303 0.3006584 0.24295439
000090 c3 fc 3a 3e 5a fd bd 3d ed 79 e7 3c 80 c7 85 3d
       0.18260483 0.092768386 0.02825638 0.06532192
0000a0 0c 34 a3 3c 7d 6a 90 3c c5 58 1c 3d 18 d3 be 3d
       0.019922279 0.017628903 0.038170595 0.09317607
0000b0 2c fa 28 3e 3e 34 30 3e 87 ca 14 3e 99 68 16 3e
       0.16501683 0.17207429 0.14530383 0.14688338
0000c0 fc ca 29 3e 24 68 21 3e 14 4e 02 3e 40 b8 70 3d
       0.16581339 0.15762383 0.12725097 0.058769464
0000d0 fa f0 e5 bb be 10 7c bd 07 4b 02 be 43 c2 7a be
       -0.007017252 -0.061539404 -0.12723933 -0.24488167
0000e0 09 0b 96 be 2c 1c 49 be 82 2a 25 be 5e 85 56 be
       -0.29305294 -0.19639653 -0.16129497 -0.20949313
0000f0 58 ed 8e 3d 2b d7 ce 3e 6e b4 2c 3d ce 76 5d be
       0.069788635 0.40398535 0.04216426 -0.21627352
000100 f2 06 f0 bd 82 d1 88 3c 0d 41 5c 3d 88 4c ca ba
       -0.11720075 0.016701464 0.053772975 -0.0015434185
000110 ce e9 bd bd 69 1d 76 be 26 ea 98 be 45 69 31 be
       -0.0927311 -0.24034657 -0.2986614 -0.17325313
000120 77 5b ba bd 90 32 63 bc 9a 18 0b bc c4 3f 07 bd
       -0.09099477 -0.0138670355 -0.008489752 -0.033019796
000130 38 41 45 3d 6c 14 c8 3d 12 59 a7 3c fe 8d a5 bd
       0.0481579 0.0976952 0.020428214 -0.080837235
000140 8c bc 70 be f8 7d ce be 89 00 37 bf 7a c6 6e bf
       -0.23509425 -0.40330482 -0.7148519 -0.932716
000150 80 dd e9 3e d4 6a 8f 3c 6f 48 12 be 59 8a 2e 3f
       0.45676804 0.017506994 -0.14285444 0.6817985
000160 4a bc d2 3e f9 5e 0e 3e 24 f2 66 be ce 0e 0b bf
       0.41159278 0.13903417 -0.22553307 -0.54319465
000170 cc 4a e4 be b2 a5 38 be c7 1e f2 bd 6b 30 05 be
       -0.44588315 -0.18031958 -0.118222766 -0.13006751
000180 46 61 80 be 4e b0 1c be 36 03 89 3c c1 bb 8d bc
       -0.25074214 -0.1530163 0.016725164 -0.017301442
000190 14 84 e1 3e 54 4f 9a 3e b2 93 2e 3f 85 fe bd 3e
       0.4404608 0.30138648 0.68194115 0.37108245
0001a0 24 ca ad 3d 0a 69 66 be d8 44 4f be 92 60 b1 be
       0.08485821 -0.22501007 -0.20241106 -0.3464399
0001b0 50 76 57 be b7 bd 0c bd 37 99 cd 3e 20 39 ae 3e
       -0.21041226 -0.034360614 0.40155956 0.34027958
0001c0 95 86 43 3e 7c c6 a0 3e 49 20 9d 3e a9 58 c5 be
       0.19094308 0.31401432 0.30688694 -0.38544205
0001d0 cc 39 18 3d c0 0a fd 3e c3 74 84 3e 6d 9b 9c 3e
       0.037164494 0.49422264 0.25870332 0.3058733
0001e0 7e c1 15 3e 2f 13 59 bb 4a 8a 74 be 5d 7a 2c be
       0.14624593 -0.0033123007 -0.23880878 -0.16843553
0001f0 85 16 73 be 7f 51 37 be d9 90 52 be af da 59 bd
       -0.2373906 -0.17902182 -0.20563067 -0.05318707
000200 f9 42 6f 3e da 5d 2e 3e 51 30 f5 3d 22 10 c5 3d
       0.23365392 0.17027989 0.11972106 0.09622218
000210 66 4c 1e 3e 4f 2e 8e 3d 58 00 04 bd 80 df 35 be
       0.15458831 0.069424264 -0.03222689 -0.1776104
000220 00 f6 62 be a3 60 5c be 6d d5 67 be 46 f5 99 be
       -0.22164154 -0.21521239 -0.22640009 -0.3006994
000230 1e 7e c4 be e4 9a 17 3e 7a 25 f2 bc 5c d6 b1 be
       -0.3837747 0.1480518 -0.029558886 -0.34733856
000240 fd 39 0e be 2c 75 33 bc 71 85 b6 bd 77 4f c2 bd
       -0.13889308 -0.010953229 -0.08912171 -0.09487813
000250 a0 60 33 be 04 da 22 be 27 ae 79 bd 31 e3 4a 3d
       -0.17517328 -0.15903479 -0.0609571 0.049533073
000260 49 24 5e 3d 81 0a 2b 3e c5 0b ab 3d 94 1c 3b 3e
       0.054233823 0.16703226 0.08351854 0.1827262
000270 cf 32 0f 3e ef b7 8a 3e a7 28 c1 3d 35 8b fd 3d
       0.13984226 0.27093455 0.09431582 0.12380067
000280 78 bd 99 3e 2d 3c e5 3e 40 86 c0 3e 5b 32 aa 3e
       0.30027366 0.44772473 0.37602425 0.33241543
000290 fd a6 10 3e 6d 74 9a 3c 26 5f 82 be ee 2c b8 be
       0.14126201 0.018854344 -0.25463217 -0.3597178
0002a0 c3 cb 41 be 6f 55 3a 3d ba f0 87 be 61 ac 22 3e
       -0.18925385 0.045491632 -0.26550847 0.1588607
0002b0 fb 0f 6a 3d 82 e4 a6 bd ed 3e a7 be 80 79 b7 be
       0.057144146 -0.08149053 -0.32665196 -0.35834885
0002c0 1c 9e 96 be 9d 7e ea bd b4 fb 22 bd 8e 80 18 bd
       -0.29417503 -0.11449931 -0.039790824 -0.037231974
0002d0 c0 29 cb bd d3 ea 82 bc 8e fc bb 3d 3a fd df 3d
       -0.099200726 -0.015981114 0.0917903 0.10936971
0002e0 2e 24 fa 3e b0 ff e2 3e de 12 36 3f 6b a1 d4 3e
       0.48855728 0.443357 0.7112254 0.41529402
0002f0 94 63 39 3e b5 a3 64 3d c1 99 cc 3d cf b2 ba bd
       0.18104392 0.055820186 0.09990264 -0.09116136
000300 fe 39 03 be e4 67 62 bd a8 d7 87 3d d0 18 54 be
       -0.12815091 -0.05527486 0.0663293 -0.2071259
000310 e8 4b 08 be 2a 6c a2 3e 93 d0 7e 3e 8d 5a 35 3f
       -0.13310206 0.31723148 0.24884252 0.70841295
000320 b6 b3 d2 3e 6d 0d 18 3f 17 b1 b0 3e 63 63 02 bd
       0.41152734 0.59395486 0.3451011 -0.031833064
000330 2f 0f 20 be 6c 92 f2 bd 6b f6 63 be 93 e3 95 be
       -0.15630792 -0.11844334 -0.2226197 -0.29275188
000340 1c 5f bb be d0 5e f8 bd a7 57 ab bd 68 54 05 bd
       -0.36596 -0.12127459 -0.08366328 -0.0325512
000350 9e 67 8d 3e 14 12 d3 3d 01 02 fa 3e 98 86 56 3e
       0.27618116 0.103061825 0.48829654 0.20949781
000360 2b b4 57 3d 2c c7 db bd 0c de a9 bd 58 7a 69 be
       0.052662056 -0.107313484 -0.08294305 -0.22800577
000370 ef d7 1d be cd eb a6 bd df 60 86 3d 73 cf e4 bc
       -0.15414403 -0.08150444 0.065614454 -0.02793095
000380 45 cc 76 3f c4 a5 a9 bd 6f 33 81 be 18 7e 75 be
       0.9640544 -0.082835704 -0.25234553 -0.23973882
000390 49 49 d4 be 0c c2 0e bf f1 af 13 bf 2b 09 95 be
       -0.41462162 -0.5576484 -0.5769034 -0.29108557
0003a0 20 2c e5 3d 5c 41 03 3e 09 56 3c 3c c7 8c 6c be
       0.11190057 0.12817901 0.011495122 -0.23100577
0003b0 ea b2 d1 be 0f 6d ef be f9 fa ab be 7d 9d 43 be
       -0.40956813 -0.46762893 -0.33589914 -0.19103046
0003c0 bf fc b0 3d a7 77 46 3e 1f 5e c7 3e ad c2 e2 3e
       0.086419575 0.19381581 0.38938996 0.4428915
0003d0 c9 f0 d2 3e a6 1e 73 3e 43 e1 1d 3e 8f 2e bb 3d
       0.4119933 0.2374216 0.15417962 0.0913974
0003e0 30 69 4b 3e 33 0b 82 3e 9b 20 f2 3e 02 65 c9 3e
       0.19864345 0.2539917 0.472905 0.39334875
0003f0 42 6a b4 be 5a 58 0a 3e 22 c4 b1 3d 9f a1 f9 3e
       -0.35237318 0.13510266 0.086799875 0.4875612

bias f4 [7]
000000 12 3f 83 bd 4b 8f 15 3f 32 0c d3 3d a3 6c 0f bf
       -0.06408514 0.5842177 0.103050604 -0.5602514
000010 c4 23 5a 3f f3 64 2b bf be 22 cd bd
       0.85210824 -0.6695091 -0.10016392
