e-nose-cnn/net/mobilenetmy.pkl (torch_old, 23094 bytes, 10 tensors)

weight f4 [10, 1, 1, 3]
000000 7c 73 24 3e 15 26 f2 3e b0 8b e6 3e 99 c6 c7 bf
       0.16059679 0.4729468 0.45028448 -1.5607482
000010 4c d9 c8 bf 53 56 74 bf 65 09 a0 3f b6 49 c2 3f
       -1.5691314 -0.9544422 1.2502867 1.5178745
000020 6c 3e 0f 40 7b b7 2d 3f e9 9c 91 3e ac a6 04 3f
       2.238185 0.67858094 0.28440025 0.5181682
000030 a0 1b 1e 3e c8 5f e8 3d 61 83 48 3f 77 f4 34 3f
       0.15440226 0.11346394 0.7832547 0.70685524
000040 c4 7b 7e 3f 8f 93 16 3f 90 3b 71 3f 9b 85 83 3f
       0.994076 0.58818907 0.9423151 1.0275148
000050 96 dd 89 3f 1d 2b ab 3e f0 6b 7b be 9d 84 6d be
       1.0770748 0.3343133 -0.24552894 -0.23195119
000060 76 7a ea 3f c2 b2 e3 3f 80 00 8c 3f aa fa 28 c0
       1.8318622 1.7788928 1.0937653 -2.6402993
000070 d5 58 3a c0 9a db 3b bf
       -2.9116719 -0.7338196

bias f4 [10]
000000 8e 79 c0 be 7b bc 3a 3f 14 3f 44 3f 27 61 09 3e
       -0.3759274 0.7294385 0.7665875 0.13415967
000010 48 4c 06 3e 57 d5 9d 3e 84 18 41 be 42 af 07 be
       0.13115036 0.30826828 -0.18857008 -0.1325045
000020 54 2e 1f 3e e3 7c 7f 3e
       0.15545017 0.24949984

weight f4 [6, 10, 1, 1]
000000 89 05 e1 be fc a0 82 3f 95 3d a1 bd b8 c2 ab 3e
       -0.43949535 1.0205379 -0.07873074 0.33546996
000010 ec da ce 3e e9 27 df 3e 44 42 6b 3e c5 7a 62 be
       0.404014 0.43585137 0.22974497 -0.22117145
000020 3b 43 c8 3e 02 02 2f 3e 46 52 0b 3f be 98 f7 3f
       0.39113793 0.1709061 0.54422414 1.9343488
000030 bf 61 ca bf 54 c3 d2 bd 0e 41 5a 3e 77 41 19 3f
       -1.581108 -0.10291162 0.21313879 0.59865516
000040 19 8e a7 be 7b 78 f3 be 2a 11 01 bf a1 6c 01 bf
       -0.327256 -0.47552857 -0.50416815 -0.5055638
000050 5c 75 16 3f e9 ea 3c 3e 16 e5 80 3e 40 5d 25 3e
       0.58772826 0.18448986 0.2517478 0.16148853
000060 a5 3c 30 3d fd d8 a1 3e fe 68 74 bd 8e 53 4e be
       0.043026585 0.3161086 -0.05967044 -0.20149061
000070 22 ee 5e 3e 18 18 ac 3e 25 a2 29 bf 5a 5c 32 bf
       0.21770528 0.33612132 -0.6626304 -0.6967217
000080 c1 63 1b 3f 31 9f 37 3f f8 01 95 be 9a 1b fc be
       0.6069909 0.7172728 -0.29103065 -0.49239808
000090 a6 99 a8 3e 87 30 f0 3e 1f 72 b5 bd a0 ce 28 40
       0.32929724 0.46912023 -0.088596575 2.6376114
0000a0 7f 72 86 3e ec b5 ca be 9e 74 fb be 68 59 11 be
       0.2625923 -0.3959192 -0.4911241 -0.14194262
0000b0 f1 be 8d be 20 92 f3 be 11 37 1b bf 4b 06 ed 3e
       -0.2768474 -0.47572422 -0.606309 0.46293864
0000c0 37 d7 e1 be fe 8f 09 3e 6f 96 1d 3e a9 bb 30 3e
       -0.44109508 0.13433835 0.15389417 0.17259087
0000d0 de dd ad 3f 43 5e 95 3e b6 4c 64 3e 4b 2a 7f bf
       1.3583333 0.29173478 0.22294888 -0.9967391
0000e0 8c 46 b5 bf 16 6c 87 bd a4 a4 fb 3f c5 e1 9b bf
       -1.4162154 -0.06612413 1.9659619 -1.2178274

bias f4 [6]
000000 30 cf 82 bf 22 73 14 3f e6 de bf 3c df ef 15 bf
       -1.0219479 0.5798818 0.023421716 -0.5856914
000010 ef aa 8c 3e 98 d5 15 bf
       0.27474162 -0.58529043

weight f4 [6, 1, 1, 4]
000000 cf 28 92 3f ca d6 9e bf 9b a0 b5 be 21 f1 e5 be
       1.1418704 -1.2409298 -0.35474095 -0.4491053
000010 74 f7 5b be 89 c5 6a 3f df b1 1c 3f e2 e4 f8 3d
       -0.21481115 0.91707665 0.6120891 0.12153031
000020 25 c3 2f 3e 1c 4e d4 be e6 1a 3e be 2f 20 38 be
       0.17164285 -0.41465843 -0.18564948 -0.17981027
000030 db 73 6d bf 5e ba ac bf 15 e0 4f 3f 4b 7e ad be
       -0.92754906 -1.3494375 0.812013 -0.33885416
000040 9b bb 20 3f 43 ba 08 3e e9 b0 85 3e 42 82 fa 3c
       0.62786263 0.13352303 0.26111534 0.03057969
000050 27 ba 02 3f 57 42 17 bf b1 6c 5f 3e d6 bb c0 3f
       0.51065296 -0.590856 0.21818806 1.5057323

bias f4 [6]
000000 99 03 9b 3f c4 77 30 3f 04 1e 7d bd 98 5c 9b 3f
       1.2110473 0.6893275 -0.061796203 1.2137632
000010 c6 fe cb 3e e3 29 e6 3e
       0.39842814 0.44953832

weight f4 [10, 6, 1, 1]
000000 9d d4 12 bf 3d 56 23 be 61 2c f0 3e a7 5b 89 bf
       -0.5735567 -0.15950866 0.46908858 -1.0731095
000010 bd 87 22 bf 17 82 94 3f 88 a3 8f bf 26 1a ee 3e
       -0.6348837 1.16022 -1.1221781 0.46504325
000020 76 b8 01 bf e8 43 46 3f ec 34 ae 3e b8 06 bc 3e
       -0.5067209 0.77447367 0.3402475 0.36723876
000030 da 69 68 3f e8 fe 9e bf 5b a3 8d be e4 dc 08 bf
       0.90786517 -1.2421541 -0.27663693 -0.5346205
000040 99 7e f9 3d 0e 17 51 bf a3 d8 bf 3a 70 05 d8 3e
       0.1218235 -0.81675804 0.0014636706 0.42191648
000050 56 e9 79 be d9 36 ed bf 91 ce 2e 3f 01 65 17 bd
       -0.24405417 -1.8532363 0.68283945 -0.03696156
000060 c9 bb 85 3e d3 d4 12 3f 65 b9 06 3d 2a 41 1f bf
       0.2611983 0.57355994 0.03289165 -0.6220881
000070 dd b5 9e 3e d4 55 d5 bf 68 7b e4 be 08 6c 0b 3f
       0.30998126 -1.6666818 -0.44625401 0.5446172
000080 e6 3f d9 be bb b2 49 3f d5 55 13 bf 11 7a 87 bf
       -0.42431563 0.78788346 -0.57552844 -1.0584127
000090 d9 74 e1 3e b2 fd a6 bf 55 a2 64 be bd e7 3f 3e
       0.4403446 -1.3046172 -0.2232755 0.18740745
0000a0 35 82 36 be d9 63 4f 3f be af c3 3e a7 ab 54 bf
       -0.17823108 0.8101173 0.38220018 -0.8307442
0000b0 c2 b9 28 3e 76 ca 1e 3d 25 f6 62 3e a4 6d 2d 3e
       0.16477111 0.0387673 0.22164209 0.16936356
0000c0 e2 85 29 bf cd 8e 3b 3f 4c 10 f0 be d0 4e 0b bf
       -0.66219914 0.7326477 -0.46887434 -0.54417133
0000d0 95 52 87 3e 03 69 51 3c aa 4f 39 3f 06 52 63 be
       0.26430193 0.012781384 0.7238718 -0.22199258
0000e0 a0 68 18 bf 00 4a 72 3f 95 e4 e2 3e b2 c4 cc bf
       -0.59534645 0.94644165 0.4431502 -1.5997527

bias f4 [10]
000000 f8 b2 4b bd 32 bb 96 bf 39 21 c7 3f 70 94 83 3f
       -0.049731225 -1.1775877 1.5557014 1.0279675
000010 5d 0e 2c 3f 8b c7 a0 3e f3 85 9a be 40 db 4a 3e
       0.67209417 0.3140224 -0.3018032 0.198102
000020 16 4a a7 be 4f 7b 91 3e
       -0.3267371 0.2841439

weight f4 [7, 280]
000000 dc 2f 9f 3e 66 25 20 3f a5 6a d2 3e f6 87 fd 3e
       0.310912 0.62557065 0.41096988 0.49517792
000010 0f 6d 65 3e 96 ee a7 3d 86 54 47 bc 47 c1 05 be
       0.22404884 0.081998035 -0.012166148 -0.1306201
000020 98 50 08 be 3d 4d d0 bd dc 75 09 bd 81 ef c9 3d
       -0.13311994 -0.10170982 -0.033559665 0.09860135
000030 ed 54 12 3e 1a cb 13 bd 62 18 f7 bd c7 8a 37 be
       0.14290209 -0.036082365 -0.120651975 -0.17924033
000040 71 a9 26 be 0f 13 c1 bd 0a fb 16 be f8 e5 39 3d
       -0.16275574 -0.09427463 -0.14744201 0.04538533
000050 b2 e5 91 be 7d f5 19 3d 2d 18 e6 3b df 74 e1 3d
       -0.28495556 0.03758763 0.007021925 0.110086195
000060 9e 96 d9 bd 23 ec 4b 3e 2a 84 f7 bd f1 2a 32 be
       -0.10624431 0.19914298 -0.12085755 -0.17399193
000070 7b 0b d5 be 44 47 47 3e 90 70 56 3e 82 08 ba 3e
       -0.4161032 0.1946078 0.20941377 0.36334616
000080 3f eb 31 3e bf dd b2 bd 11 3d 71 be 22 dc 9b be
       0.17374896 -0.08733701 -0.23558451 -0.30441386
000090 1a 06 af be b2 e5 9b be bb cc 4b be e9 91 1b be
       -0.34184343 -0.3044868 -0.19902317 -0.15192379
0000a0 b7 6e 63 bc ce c1 e8 3d 47 5b 36 3e 11 90 16 3e
       -0.013881377 0.1136509 0.17808257 0.14703394
0000b0 d0 43 d7 3c a8 a3 6f 3d dc 90 21 3e 4d 2d 32 3e
       0.026277453 0.058505684 0.15777916 0.17400093
0000c0 40 9c 0a 3e 35 7f 50 3e 16 26 34 3d b4 27 c9 3c
       0.13536167 0.20361026 0.043981634 0.024555065
0000d0 e5 7f a9 bd 2f 20 9b 3a 56 d9 40 3d c9 3d 67 bd
       -0.08276347 0.0011835153 0.047082268 -0.056455407
0000e0 25 a2 a1 3e c8 fe f9 be 1d fa a9 be 6d b0 ee be
       0.3156902 -0.48827195 -0.33198634 -0.46618977
0000f0 cb 09 5e 3d 4c 05 b7 3e af 7f b7 3e 99 6f aa 3e
       0.054208558 0.3574623 0.35839602 0.33288267
000100 45 b5 88 3e 8c 73 6b 3d fe 5e ae bd c9 b4 26 be
       0.26700798 0.05748324 -0.08514212 -0.16279902
000110 ac 27 48 be 7e e6 00 be af ea ab bd 89 7a f1 bd
       -0.19546384 -0.12587926 -0.08394372 -0.1179095
000120 39 61 34 bd 21 23 aa bd 16 f8 b1 bd 40 fb 21 be
       -0.04403803 -0.083074816 -0.08689897 -0.158185
000130 81 e8 35 be fa 47 2b be 35 aa 2c be a8 02 1b be
       -0.17764474 -0.16726676 -0.16861804 -0.15137732
000140 3b 49 0b be 0d 51 15 be d0 3e 12 be 70 8f 45 be
       -0.13602154 -0.145817 -0.14281774 -0.19292998
000150 b5 20 32 3e f0 e2 ae bd 29 a8 af 3d 94 6b f4 be
       0.17395289 -0.08539379 0.08576996 -0.47738326
000160 9d 61 9d be a1 85 93 be 43 9f 5a be ce e3 45 be
       -0.30738536 -0.28812888 -0.21349816 -0.19325182
000170 4d 95 c4 bd 1f 76 1a be e5 dd 2f be b7 4f 36 be
       -0.09598789 -0.15084122 -0.1717449 -0.17803846
000180 b5 59 79 be e7 b8 da be 6d 69 c9 be 1d 04 ce be
       -0.24350627 -0.42719194 -0.39338246 -0.40237513
000190 ed 40 96 be 58 6f ee bd 3d 4c 7a be 97 c9 b8 bd
       -0.2934641 -0.11642331 -0.24443145 -0.09022825
0001a0 d3 5f c2 bd b5 a5 70 bd 72 e8 a6 3d e7 17 9d 3c
       -0.09490933 -0.05875178 0.08149804 0.019176437
0001b0 a3 60 8f 3c 48 57 18 3d 86 97 2f bd 2a 17 0d be
       0.017502135 0.037192613 -0.042869113 -0.13778368
0001c0 fe a3 78 bd ae 2b 78 be 7e 6c d5 be 70 28 00 bf
       -0.06070327 -0.24235412 -0.41684335 -0.500617
0001d0 e7 7f 43 be 14 cb 38 bd 54 ea ed 3d f4 9a 3a 3e
       -0.1909176 -0.045115545 0.1161696 0.18223172
0001e0 47 b7 e6 bd b1 43 6a be 7c ff eb bd ba 05 91 bd
       -0.11265426 -0.22877385 -0.11523339 -0.070811704
0001f0 84 8e 46 be ce 2b 88 be 14 ad 9f be 57 9d bb be
       -0.19390303 -0.2659592 -0.31186736 -0.36643478
000200 93 22 39 be 0a 74 70 be 9a d8 b7 bd e0 d4 0b be
       -0.18079595 -0.23481765 -0.0897686 -0.13655424
000210 85 5b 25 3d 23 43 d1 3d ae cf 0c 3e 27 55 87 3e
       0.040370483 0.102178834 0.13751099 0.26432154
000220 9a f4 99 3e 95 31 8e 3e 1c b0 63 3e ad a2 16 3e
       0.3006943 0.27772203 0.22235149 0.14710493
000230 55 b4 6b bd 6f d2 b1 be fe 1c c0 be e0 6a 01 3c
       -0.057545025 -0.3473086 -0.3752212 0.007899016
000240 8e a0 2c 3d e4 bd 73 3d dc fd 79 3e 2e 5d 83 3e
       0.042145304 0.059507266 0.24413246 0.25657028
000250 59 10 17 bd d8 bd 51 be 5f b7 38 be 4f 5f 05 be
       -0.036880825 -0.20482576 -0.180387 -0.13024639
000260 d3 5c fc bd 03 07 b1 bc 55 cd 19 3c 75 a5 08 bc
       -0.12322392 -0.021609789 0.009387334 -0.008340229
000270 5d cd 21 3e 04 68 84 bd 3e fa cf 3d 3b 78 a3 bd
       0.15800996 -0.06465152 0.10155152 -0.079819165
000280 5d af 26 3d 5a dd 0c bd 96 6a 1f 3c d9 b4 a6 3c
       0.040694583 -0.034390785 0.009730002 0.020349907
000290 38 82 44 3b 87 8f 1e be 2d 22 13 be 43 02 46 be
       0.0029984843 -0.15484439 -0.14368506 -0.193368
0002a0 2a 3a 0a bf b5 40 96 3d 69 d3 fc 3d e8 61 b6 3e
       -0.53995 0.07336561 0.12345011 0.35621572
0002b0 2a f9 5e 3e 93 29 f4 bc 01 8b 7e be 1c ab 68 be
       0.21774736 -0.02980498 -0.24857713 -0.22721523
0002c0 0f a0 0c 3c 8a be a6 3e c5 36 bb 3e 38 fa 8e 3e
       0.008583083 0.32567245 0.36565223 0.27925277
0002d0 e0 25 76 3e bb 52 00 3e d7 5e f6 3c a3 5f 7f be
       0.24037886 0.12531559 0.03007452 -0.24938826
0002e0 d5 c3 d4 be 1a 20 62 be 86 e0 0a be 5f 22 10 3d
       -0.41555658 -0.22082558 -0.13562211 0.03518903
0002f0 f7 78 e8 3c 56 e3 08 3e 20 47 dc bc f5 62 cb 3c
       0.028377993 0.13367972 -0.026889384 0.02482746
000300 c3 e7 bc bd d5 ae 81 3d c4 c0 15 3d 2b ac f6 3c
       -0.092238925 0.06332175 0.03656079 0.030111393
000310 84 e7 22 be d1 00 82 be 93 4d 21 be b3 9b df bc
       -0.15908629 -0.25391248 -0.15752248 -0.027295923
000320 23 c0 cf 3c 62 03 78 3d bf d5 3b 3d 26 7e aa 3d
       0.025360173 0.0605501 0.04585814 0.08324842
000330 2e 0c 14 3e ed 8a 49 3e e7 57 2e 3e 4d 94 ed 3d
       0.14457771 0.19681902 0.1702572 0.11600552
000340 23 2b 94 3d ac 52 cf 3c c3 cc f0 bb 40 34 3a bd
       0.0723479 0.025307976 -0.0073486282 -0.045459986
000350 23 5c 81 bd 23 30 57 bd 91 2e 45 bd cd f2 01 bd
       -0.06316402 -0.05253614 -0.048140112 -0.031725693
000360 13 35 94 bc f9 1e e3 ba 7f 4d 64 bb f7 88 1a 3c
       -0.018091714 -0.0017327956 -0.003483623 0.009432069
000370 d7 3d 3f 3c a4 01 9a 3c 01 12 71 3c e7 ea b1 3c
       0.011672459 0.01879961 0.014713765 0.021718455
000380 7f 5d 09 bf aa e8 97 3e ca 00 b1 3e c2 fb 89 3e
       -0.5365829 0.29669696 0.34570915 0.26949888
000390 1b 09 11 3e d1 1a ac bd 46 7e c3 bd 5f 39 2b be
       0.1416363 -0.08403552 -0.09545569 -0.16721104
0003a0 ad 06 54 be ad ae 5b be 41 5b 41 be 0d ac 23 be
       -0.20705672 -0.21453352 -0.18882467 -0.15983601
0003b0 9e 46 1f be e9 ef 16 be 09 06 83 bd bc ca b9 3c
       -0.15554282 -0.14739956 -0.063976355 0.02267968
0003c0 50 55 b7 3d 96 d0 5e 3e 28 bd 71 3e b4 03 88 3e
       0.08951819 0.21759257 0.23607314 0.26565325
0003d0 3a 57 96 3e b6 5f 96 3e 11 89 9c 3e 27 19 9a 3e
       0.29363424 0.29369897 0.30573323 0.30097315
0003e0 6e 57 87 3e ea 89 47 3e 66 38 63 3d b6 0c 6c 3c
       0.2643389 0.19486204 0.055473708 0.014407327
0003f0 6d c0 d4 bd 4e 6c d8 be 49 96 92 be 5c 04 0d bd
       -0.10388265 -0.4227013 -0.28630283 -0.034427986

bias f4 [7]
000000 02 9e 9e be f7 0f dd 3b b7 44 50 3e ef 7c 0b bd
       -0.30979925 0.006746288 0.20338713 -0.034054693
000010 a6 30 bd 3e 72 5e 18 bf ee b5 b3 3e
       0.36951178 -0.5951911 0.3509974
