e-nose-cnn/net/mobilenet_nopool.pkl (torch_old, 23342 bytes, 10 tensors)

weight f4 [10, 1, 1, 4]
00000000: 3ae1 d53f 7c72 393f 6e7e 813f 3b51 29bf
00000010: ec7b dbbf 7b42 28bf 7384 9bbf 43b2 3bbf
00000020: 1c68 e9bd 8e08 4cbe 88d2 983e 8564 223e
00000030: c72a 4abe 985a 933e 8643 173e c371 9bbe
00000040: 07b2 88bf 7f14 13be 0bc5 4abe 39db 83bb
00000050: ff8d 65bd faac 42bf 064b a4bf f18b 1ac0
00000060: c746 793e b113 c8bc c0ab 0a3f a23c a73e
00000070: 6c85 b3bd 5edb 8abe 3cc7 65be de90 d9be
00000080: 951f 8f3e c870 fcbd 1d44 61be 6f80 85bf
00000090: 59a1 1fc0 d967 edbe d7c0 983f b731 a43f
1.6709359 0.72440314 1.0116708 -0.6613957 -1.7147193 -0.6572644 -1.2149795 -0.7331888
-0.113968104 -0.19925138 0.29848123 0.15858658 -0.19742881 0.28780055 0.14771852 -0.3036023
-1.067933 -0.14363287 -0.19801728 -0.004023936 -0.05604362 -0.7604519 -1.2835395 -2.4147913
0.24343406 -0.024423452 0.5416832 0.32663447 -0.087656826 -0.2712049 -0.22439283 -0.42493337
0.27953783 -0.12326199 -0.2199864 -1.042982 -2.4942229 -0.46368292 1.193385 1.2827672

bias f4 [10]
00000000: d4fb b3bd 6635 693f 1ecb 453d 71d6 57bd
00000010: 253f e43e 6f68 71ba 651b 023f 8a42 03bf
00000020: dfd2 303e 4b5d ea3e
-0.08788267 0.91097105 0.04828941 -0.05269474 0.44579425 -0.0009208982 0.5082305 -0.51273406
0.17267941 0.45774302

weight f4 [6, 10, 1, 1]
00000000: 3ec6 133f 5139 063e e15a 87be 9ec7 d9bd
00000010: d4e4 29bf 863b 06bf 1f24 393f dc90 c0be
00000020: 87ab f4be 3398 683f 212b 20bf f7b3 983e
00000030: dc92 95bc 1cae e13d c6f1 febe 02ca 893e
00000040: 331c fcbd f1be 24be 33c3 523e 3382 fe3d
00000050: b18e 0ebf fb6c 95bf 16ad 7dbe e185 0abf
00000060: 3826 d63e 8f45 e8bd b208 223f a751 023f
00000070: 4721 97be 97ff 25bf e134 b4be a75a 243f
00000080: baf8 113f 01f6 133f 2b35 cbbe a790 623f
00000090: 5fdf 1e3f a971 b7be eba4 bcbe 4f90 a43e
000000a0: 6706 cbbf 0f35 b4bf d96d 1b3e 4d47 17be
000000b0: 1fe1 403f 4ae3 0a40 40c9 613e 460e df3e
000000c0: 8202 513f 090b 0740 f8b0 54be 7c6e 793f
000000d0: 0e2f 083e a733 173f 976b cc3d 19f6 073f
000000e0: cf7f 53be f57a 13bd 2486 b13e bbe9 3e3f
0.5772437 0.13107802 -0.26436523 -0.10633777 -0.6636479 -0.52434576 0.7232074 -0.3761052
-0.47787115 0.9085724 -0.6256581 0.29824802 -0.018258505 0.11019537 -0.49793833 0.26911932
-0.12310066 -0.16088463 0.20582275 0.12427177 -0.5568648 -1.1673883 -0.24773058 -0.54110533
0.41826034 -0.11341392 0.6329452 0.5090584 -0.29517576 -0.64843124 -0.35196593 0.64200824
0.5702015 0.5779725 -0.39689 0.8850197 0.6205959 -0.35828903 -0.36844572 0.3214135
-1.5861329 -1.4078692 0.15178622 -0.14773293 0.7534351 2.1701226 0.22049427 0.43565577
0.8164445 2.1100485 -0.20770633 0.9743421 0.132992 0.5906319 0.09981459 0.5310989
-0.20654224 -0.036005933 0.34672654 0.74575394

bias f4 [6]
00000000: 5492 173e e6c9 e53d 3509 fe3e 7ff1 87be
00000010: f5b7 0b3f 4b51 39be
0.14801913 0.1122015 0.496164 -0.26551434 0.5457757 -0.18097417

weight f4 [6, 1, 1, 3]
00000000: f4ca ccbe ed2f 87bf e740 76bf df45 133f
00000010: bb8e e0be 6d56 293f 10c7 293f 26da 803f
00000020: bfdf 393f 86fb 27bf a3ad ffbe e5e7 67bf
00000030: 36db 913f ae17 063f 566c 253e f570 d2be
00000040: edfd f8be 876e 3fbf
-0.3999859 -1.0561501 -0.96192783 0.5752849 -0.43858895 0.661475 0.6631937 1.0066574
0.72607034 -0.6561817 -0.49937162 -0.9058822 1.1395023 0.5237988 0.16154608 -0.41101804
-0.4863123 -0.74778026

bias f4 [6]
00000000: 0470 5b3f 2066 5f3e cfd6 99bc 3002 5f3f
00000010: 8aa3 5bbd 11bf 3f3f
0.857178 0.21816301 -0.018779187 0.8711271 -0.05362276 0.7490092

weight f4 [10, 6, 1, 1]
00000000: eb0e d43e daba debe b662 b43e b0d5 413f
00000010: 0a2e 143f ccc8 bc3e dd16 053f 353d bd3e
00000020: def4 6cbf e476 96bf e059 903f df13 85bf
00000030: f84f 203f d354 ff3e ea2c 29bf 3183 ea3e
00000040: b3f6 3e3e c29a 013f 21fa ce3e f7db 09bf
00000050: 51b8 99be 15d9 96be 9321 28bf 55dc 833e
00000060: 050f b83e 803e 8f3e 02d9 0cbf 65bf 38bf
00000070: 467c 123f d455 a4be 4b58 8e3f 0cbd b13e
00000080: e4a0 32bf cae4 c83e 6e03 f8bf 7a83 10bf
00000090: b2be 2d3f 1e01 8d3e 5aed ef3e 071e e73d
000000a0: 7ed6 a4bf f2d4 1a3e fcc7 a53e 6529 cabd
000000b0: 9aec 3a3f b5fb c03e cd7b 8e3f 5d76 0d3f
000000c0: fb0f 1bbf e1a6 9c3e 93a9 49be 2772 f4be
000000d0: 5045 623f 7cbe 9cbe 2de8 883f 195e 1c3f
000000e0: b42e bbbe 1d2e 2bbe be47 71bf cd22 b43e
0.41417632 -0.4350193 0.3523156 0.75716686 0.5788275 0.36871946 0.5198801 0.3696076
-0.9256114 -1.1755033 1.1277428 -1.0396689 0.6262202 0.49869403 -0.6608416 0.45803216
0.18648796 0.50626767 0.40425208 -0.53851265 -0.30023435 -0.29462495 -0.6567623 0.25754037
0.3594896 0.2797737 -0.5501863 -0.72167045 0.57220876 -0.32096732 1.1120695 0.34714544
-0.6977675 0.39237052 -1.9376047 -0.5645062 0.678691 0.27539915 0.46860772 0.11285024
-1.2877958 0.15120295 0.32379138 -0.09871177 0.73017275 0.37692037 1.1131531 0.55258733
-0.6057126 0.30596069 -0.19693594 -0.4774334 0.8838701 -0.30614078 1.0695854 0.6108108
-0.3655907 -0.1671681 -0.94250095 0.351828

bias f4 [10]
00000000: 8d00 88bf 4903 ecbd 2b21 b73c a02f ab3d
00000010: 409b 843c 9e3e db3f 9d6e f43e b7d5 7abf
00000020: 55fe 24bf ab55 d33e
-1.0625168 -0.11524064 0.022354683 0.08358693 0.01618731 1.7128484 0.4774064 -0.9798235
-0.6445058 0.41276297

weight f4 [7, 290]
00000000: b3f5 2b3f 735c de3d a78c 533e a88f e8be
00000010: 7feb 55be 01e7 a63c f81e e7bc 770a 413d
00000020: a166 0f3e e17e ba3e 9708 c33c 44e5 113b
00000030: d2b6 e23d 5594 e63c dc91 023d 909d 833c
00000040: b7dd 21be 7193 cdbd e444 80bb de8e adbd
00000050: ccf1 2dbd 6276 bfbd 300f aabc e6ec 47be
00000060: 8f25 90bd 9143 bcbd 4ffd b9bd 226f 52bd
00000070: d83d a5bd 4aaa 903e 1864 e43d e54b d53d
00000080: d151 a5be 508f c1bc f1e2 123e 3125 1ebc
00000090: a994 1ebe 8855 32be 4ea3 663c 5995 66be
000000a0: c047 48be 280e 2d3c 3849 10bc 022c 813d
000000b0: e89f 933d a27d 38be ad0f cabd 3c56 573a
000000c0: eeb3 bcbd e8da 25bd b825 c0bd cb0f 933c
000000d0: 092a 37be 58de f2bc 1a1a 85bd 4479 bcbd
000000e0: 166b f3bc e891 4fbd 1b5b c13d abdd d33d
000000f0: cab9 ef3d dd46 053d d4a6 cf3c b927 fb3c
00000100: 35d0 e13c b087 083d 9df7 df3c cd49 433d
00000110: d0d1 9a38 f71e 88bc 3f99 1dbc 0f8b a1bc
00000120: 948e a8bc d404 46bc 681d 3fbd cd2b 3cbd
00000130: d1bd d4bc 1df4 0bbd 6c8a bcbc 0914 e2bc
00000140: 332f 67bb ff9c ebbc ac0b cfbb 6c72 4fbc
00000150: 3883 30bc 7863 41bb 7d5e edbb 5f94 48be
00000160: 8828 0abe 9e27 013d 86fe 5a3d d068 6b3d
00000170: 3a63 043e 8ace 083d 53fc 05bd 2378 a8bd
00000180: 46c7 5abd 7d64 babd d820 a3bd 5520 48bd
00000190: 7bc8 25bd ef82 a9bc 4dae 2b3c c24e 263d
000001a0: 5cfc 623d b0c4 003d 0829 943d 968b 5c3d
000001b0: 10c1 5f3d 68c9 813c 3850 183d b06e c43c
000001c0: afec 113d 140c 0c3c c601 073c 5379 d43b
000001d0: ad51 183e d511 833d 46ae 8d3d f45e 09be
000001e0: 5808 e13c 0f35 843d 0397 1abb 13e2 79bd
000001f0: 024a 83bd 84b6 143c c010 b3bd 61f7 9bbd
00000200: ab31 a93b f558 42bb 95c8 dd3c 1de1 ed3c
00000210: 9ebc a5bd e587 4dbd 83fe 8cbb cfcd 4bbd
00000220: 9144 e4bc 3d63 4bbd 993f 213b d2a1 b3bd
00000230: a814 a9bc 84d9 1cbd 01d1 3bbd 48f1 afbc
00000240: 2263 edbc cbed 10be 3a5c e4be 1503 59bd
00000250: bba9 1a3e 2c0e 8c3c 7ddd 203e 204c 003e
00000260: 62bc dc3d b570 41bc c23b 4abd b4f9 1abe
00000270: 599d 35be 7ff4 09be a076 35be 32f3 b9bd
00000280: 15fb 093d f75a 133e bb27 7e3e 6c9f 3d3e
00000290: dc1b ba3e a01b 9c3e 3838 9e3e 14bf 243e
000002a0: 75dd 8b3e 2723 5a3e 53b7 8f3e 5ccd 3c3e
000002b0: 44f2 2f3e 035a 4b3e f0a7 c1bd e7a8 3cbe
000002c0: 9016 88bc 6446 e23d b6d0 9b3d 3133 0e3e
000002d0: 9b32 ad3d ce57 063c 3f71 8bbd c5c1 5bbd
000002e0: 1de8 34be 5235 27be 404e 95bd 81f0 99bd
000002f0: d9e3 01bd 655e e23c 24ce 573d 7ef4 df3d
00000300: 1a74 9b3d b1c7 223e c18e 093e 6031 073e
00000310: 232d 853d 2225 d53d f0cc b33d 2589 dc3d
00000320: 189e 6e3d c7e1 653d 7f2a 653d 9cbc 5f3f
00000330: a661 593e 33d5 60bc b589 50bf bdcd eabe
00000340: 9b86 16be 1c6a 8bbd db53 f43d 302d ba3e
00000350: 8155 2d3f 25ab 213e da33 563c 72ad 1b3e
00000360: 184e 4fbc 6c8a 9b3c 6a03 993c 83cf 98be
00000370: 8cd2 29be 52e4 0e3d 043a b8bd 96e3 023b
00000380: 92da acbd 0100 8f3d a9e8 57be 6ab5 fa3b
00000390: b863 89bc c226 913c f7c1 9a3d 4af4 283d
000003a0: 3095 823e 83e7 abbd d86d 343d f678 02bf
000003b0: 959a 1fbe 9e48 5d3d db24 8fbd 94b2 01be
000003c0: 4582 98bd 5807 0a3e a79c 03be cd83 cbbd
000003d0: 9c34 9f3d 1786 8f3c 73dd 4c3d 7d99 f33c
000003e0: 4516 34be 612a ccbd 8de4 0abb bed8 afbd
000003f0: 0411 0abd 7b83 b1bd 071a 8d3b c679 35be
0.6717178 0.10857477 0.20659123 -0.454221 -0.20890616 0.020373823 -0.02821301 0.04712912
0.14003994 0.36424926 0.023807807 0.0022261897 0.110700265 0.028146902 0.031877384 0.016066343
-0.15807234 -0.10037888 -0.0039144624 -0.084745154 -0.042466924 -0.093487516 -0.020759195 -0.19523963
-0.07038414 -0.09192575 -0.09081518 -0.051375516 -0.080684364 0.2825492 0.11151904 0.10414866
-0.32288983 -0.023627907 0.14344384 -0.009652422 -0.15486397 -0.1741544 0.014077021 -0.22517909
-0.1955862 0.010562457 -0.008806519 0.06307222 0.07208234 -0.18016675 -0.09866271 0.0008214449
-0.09214006 -0.04049197 -0.09382194 0.017951867 -0.17887129 -0.029647037 -0.06499119 -0.09202817
-0.029714148 -0.050676256 0.09441205 0.10345014 0.11705358 0.032538284 0.025348105 0.03065859
0.027565101 0.033332527 0.02733975 0.047677804 7.382373e-05 -0.016616328 -0.009619056 -0.019719629
-0.020575799 -0.012086112 -0.046658903 -0.04594021 -0.025969418 -0.03416835 -0.023015223 -0.027597444
-0.0035275936 -0.028761385 -0.00631853 -0.012661558 -0.0107734725 -0.002950875 -0.00724393 -0.19587849
-0.13492024 0.031531923 0.05346539 0.057473004 0.12928477 0.033400096 -0.03271134 -0.08226039
-0.0534127 -0.09101198 -0.07965249 -0.04885896 -0.040474396 -0.020692317 0.010478568 0.040602453
0.05541645 0.031437576 0.072343886 0.053844057 0.054627478 0.015843108 0.037185878 0.023978561
0.03562611 0.0085478015 0.008240169 0.0064841895 0.14874907 0.063998856 0.06918006 -0.13415128
0.027469799 0.064554326 -0.0023588545 -0.061006617 -0.064106 0.009076718 -0.08743429 -0.07615543
0.0051633916 -0.0029655073 0.027073184 0.029038006 -0.080926165 -0.050178427 -0.004302801 -0.04975682
-0.027864726 -0.049655188 0.0024604558 -0.08771099 -0.020639732 -0.038293377 -0.04585362 -0.021477357
-0.028977934 -0.14153211 -0.44601613 -0.052981455 0.1510381 0.017096601 0.15709491 0.1252904
0.10778119 -0.011806657 -0.049373396 -0.15134317 -0.17735805 -0.13472174 -0.17721033 -0.09079589
0.033686716 0.14390169 0.24819843 0.18517846 0.3634938 0.30489826 0.30902267 0.16088516
0.27317396 0.21302472 0.28069553 0.18437713 0.17182261 0.19858555 -0.0945586 -0.18423806
-0.016612321 0.11048582 0.07608168 0.13886715 0.08456918 0.008199645 -0.06808709 -0.05365159
-0.17666669 -0.16328934 -0.07290316 -0.075165756 -0.031711433 0.027632901 0.052686825 0.10935305
0.07590504 0.15896489 0.13433363 0.13202429 0.0650275 0.10407473 0.08779323 0.10768346
0.05825624 0.05612352 0.05594873 0.8739717 0.21228656 -0.013722706 -0.81460124 -0.4586009
-0.14699785 -0.06807348 0.11930057 0.363626 0.67708594 0.15787943 0.013073886 0.15202883
-0.012652896 0.018986903 0.018678386 -0.2984582 -0.16584224 0.034885712 -0.089954406 0.0019972078
-0.084401265 0.069824226 -0.21084847 0.007651021 -0.016771182 0.017718676 0.07556527 0.041248597
0.25504446 -0.08393767 0.044050068 -0.5096582 -0.15586312 0.05402433 -0.069894515 -0.12665778
-0.07446722 0.13479364 -0.12852727 -0.099372484 0.07773706 0.017519994 0.050015878 0.029736275
-0.1758662 -0.09969021 -0.0021193356 -0.08586262 -0.033707634 -0.08667656 0.004306081 -0.17722234

bias f4 [7]
00000000: b60e 99bd 73ec 12bd 0075 e33d a0ca 203d
00000010: 1927 f53e b709 1abf 2f69 c43d
-0.07473509 -0.035870027 0.111063 0.03925574 0.47881392 -0.60171074 0.09590375
