e-nose-cnn/net/mobilenet523.pkl (torch_old, 23340 bytes, 10 tensors)

weight f4 [10, 1, 1, 3]
000000 b5 a5 a0 be dc 38 93 bd 6c 24 41 3c e6 7a 34 bf
       -0.31376424 -0.071885794 0.011788469 -0.7050003
000010 e3 5e 5b bf 45 25 a1 bf ae f6 78 3f 58 79 43 3f
       -0.8569166 -1.2589499 0.97251403 0.7635703
000020 49 c2 79 3f 19 71 92 3e 15 a6 ff be f5 3c 4c 3e
       0.9756208 0.28601912 -0.49931398 0.19945128
000030 13 d5 b3 3e 80 90 85 3e a4 07 82 3e 4f 5d 3c bf
       0.351235 0.26086807 0.25396454 -0.7357988
000040 d8 6b 56 bf 3d b3 84 bf e7 0e 41 3d e2 b8 0b bf
       -0.83758307 -1.0367199 0.047133353 -0.54578984
000050 5d b3 89 be bf 07 48 be f2 a0 1f be 99 26 c3 3e
       -0.26894656 -0.19534205 -0.1558874 0.38115385
000060 31 ce 69 be 8e f6 42 bc a8 ec 78 3e 16 a9 71 3f
       -0.22832562 -0.0118996035 0.24309027 0.9439863
000070 bc d5 d4 3f c1 07 ae 3f
       1.6627727 1.3596116

bias f4 [10]
000000 7f 47 db 3e 2d d7 3b 3f bb 1a f3 bd 23 35 ec bc
       0.42827985 0.7337521 -0.11870333 -0.028833931
000010 34 4c 30 be 5a d7 a1 3e 18 3f ba 3e d0 55 dc bd
       -0.17216569 0.31609613 0.36376262 -0.10758555
000020 3b 41 3f bd 0e 52 4a 3e
       -0.046693068 0.19757864

weight f4 [6, 10, 1, 1]
000000 09 4a 2a 3e 3c 4b 51 bd db de 8e 3e 18 17 fe 3e
       0.16629805 -0.05109714 0.279044 0.49626994
000010 56 06 0c 3f d3 5f 30 bf b1 98 21 3f 8d 98 10 3f
       0.5469717 -0.68896216 0.63123614 0.56482774
000020 a7 64 55 3d e9 7a 3f bf f8 25 a4 3e c5 1e 80 3e
       0.052097943 -0.7479692 0.32060218 0.25023475
000030 ee 06 50 be 93 8f a2 bd e8 cf 0b 3f fa a5 c0 3e
       -0.20315143 -0.07937541 0.54614115 0.3762663
000040 2f 4e a4 3e 71 d8 5d 3e c8 0a c9 be 34 6f 46 bf
       0.320909 0.21664597 -0.39266038 -0.7751343
000050 17 a5 93 be 20 10 8a 3e d4 d5 e0 be 8e 48 6d 3e
       -0.2883689 0.26965427 -0.43913138 0.23172209
000060 c0 99 b2 3d 53 41 b4 bf 7e a1 9a 3e 66 b5 a5 be
       0.08720732 -1.4082435 0.30201334 -0.3236496
000070 ae de dc 3e 89 d5 07 bf 66 44 11 bf e4 fd 26 be
       0.4313864 -0.53060204 -0.5674499 -0.16307789
000080 53 e5 a6 be c3 64 e2 bd e5 e6 1a 3f 7d a5 76 3e
       -0.32596835 -0.11054375 0.6050857 0.24086566
000090 76 38 18 3b 8d 83 02 3f 18 5a ae 3d ea 0b 0d bf
       0.0023227013 0.5098198 0.08513278 -0.55096304
0000a0 8d 71 ff 3d 95 0f 39 3f 7c a1 9d 3f a5 33 03 3f
       0.1247283 0.722894 1.2314906 0.5125068
0000b0 74 4a 03 be 29 de 5e bf a9 0b 06 bf 0d 14 16 3f
       -0.1282137 -0.8705774 -0.5236154 0.58624345
0000c0 8c 92 ef 3e e7 3e d9 3f a4 5d 31 3f d2 60 be bf
       0.46791494 1.6972321 0.6928351 -1.4873297
0000d0 c0 51 39 bf d1 f1 00 bf ea 79 ac 3e ce c0 68 3e
       -0.72390366 -0.5036898 0.33686763 0.22729799
0000e0 f7 b8 67 3e bb d8 c8 be fd c4 f2 be 99 39 21 3d
       0.22629152 -0.39227852 -0.47415915 0.03936157

bias f4 [6]
000000 4d 70 34 3e 24 b9 39 3e 0e d5 d8 3e 89 67 40 b9
       0.17620964 0.18137032 0.42350048 -0.00018349117
000010 ec 98 5c bd b7 5f 8d 3f
       -0.053856775 1.1044835

weight f4 [6, 1, 1, 2]
000000 e0 98 3e bf 05 4c 57 bf 98 63 0b 3f 4a 86 0c 3f
       -0.7445202 -0.8410037 0.54448843 0.5489241
000010 7d b8 d4 bf 94 c2 51 bf d4 45 9e bd 27 36 14 3e
       -1.6618801 -0.8193753 -0.077281624 0.14473782
000020 f6 fd 0d bf 9a 07 02 c0 a8 d1 6d 3f c1 74 aa 3f
       -0.5546564 -2.031714 0.92898035 1.331688

bias f4 [6]
000000 de d2 21 3e ee 15 fd 3d be 10 60 3f c1 2a 6b bb
       0.15803096 0.123576984 0.87525547 -0.0035883638
000010 c7 93 a9 3f 53 42 c5 3e
       1.3248223 0.38527164

weight f4 [10, 6, 1, 1]
000000 70 d4 8e 3a ad 1e bb 3e f9 17 87 bf 51 46 19 3f
       0.0010897052 0.3654684 -1.0554191 0.5987292
000010 80 8a 30 3f e1 0c 9a 3d 04 98 0d 3f 44 50 11 3e
       0.68961334 0.07521988 0.5531008 0.14190775
000020 1d bf c6 be b4 b2 2d bb 23 6e 8c 3f b2 cf 16 3f
       -0.38817683 -0.002650422 1.0971111 0.5891067
000030 74 58 45 bf 80 12 a9 3e 60 5e e3 be db cf 11 bf
       -0.77088094 0.33021927 -0.4440794 -0.5695779
000040 ec 12 a6 bf 2a 75 90 3f 5b 83 ec be ee 1e 8e bd
       -1.2974524 1.1285756 -0.46193966 -0.06939493
000050 95 5b c1 be fc dd 0b 3f 39 f8 17 bf 25 3a 29 bf
       -0.37765184 0.54635596 -0.5936313 -0.66104347
000060 26 60 05 3f 4d 02 c8 be 8a 43 aa 3f 41 9b 3d 3e
       0.52099836 -0.39064255 1.3301861 0.18516256
000070 5b 20 d6 be 6f 69 13 3e cf 39 25 3f b8 d2 b4 be
       -0.4182156 0.14395688 0.64541334 -0.35317016
000080 fd 6b 00 3f b1 f1 76 bd d8 c7 91 3f 14 e7 ab 3c
       0.5016478 -0.06028909 1.1389112 0.02098421
000090 0c 2e 53 3d e5 de 1f 3f 7d e3 81 bf fb 27 9a be
       0.051557586 0.62449485 -1.0147549 -0.30108628
0000a0 b8 84 73 3f 33 0c 5e bd b1 29 c7 be 06 44 77 3f
       0.9512439 -0.054210853 -0.38898996 0.9658817
0000b0 55 1a 7c 3e 2e 4c 77 bb bd d9 12 bf 28 ba 8d bf
       0.2461942 -0.0037734616 -0.5736349 -1.1072435
0000c0 28 63 04 3f 09 ad be bd 5f e7 0a 3f 50 35 a5 bc
       0.517138 -0.093103476 0.54259294 -0.020167023
0000d0 41 4f 1d bf e5 09 90 bf 72 cf 28 be f5 89 95 be
       -0.61449057 -1.125302 -0.16485384 -0.29206815
0000e0 d2 98 8f 3e 5b 6d 6f 3e d1 63 bc 3e 78 20 9e be
       0.2804628 0.2338156 0.36794904 -0.30884147

bias f4 [10]
000000 b4 54 95 3e eb 45 12 bf 14 d7 cd be b5 74 bf 3e
       0.29166186 -0.57137936 -0.40203154 0.37393728
000010 3d e6 8b 3e 53 83 6a 3e f4 96 ba 3e e6 b6 46 3f
       0.27324095 0.22901659 0.36443293 0.7762283
000020 03 22 2d 3f 69 51 11 3e
       0.6763002 0.14191212

weight f4 [7, 290]
000000 41 10 ed bd b2 e7 df bd 64 0a 10 be a1 e7 61 be
       -0.11575366 -0.10932864 -0.14066464 -0.22061016
000010 84 7c 55 be e1 16 32 be 53 0f 2c be 6b 4b f2 bd
       -0.2084828 -0.1739154 -0.1680272 -0.11830791
000020 49 05 b2 bd da 3a c6 bd 44 14 9e bd 81 53 62 bd
       -0.08692414 -0.09679194 -0.07718709 -0.055255417
000030 f4 a0 0d be e1 be 0b be 60 96 25 be cd 3c e6 bd
       -0.1383093 -0.13647033 -0.16170645 -0.112420656
000040 e8 3f 08 be 59 bd cd bc b8 19 89 bd 20 a0 d1 bc
       -0.13305628 -0.025114702 -0.066943586 -0.025589049
000050 d7 44 1e 3c 2e ab 39 3d 4a 64 df 3c f3 5f 01 3d
       0.009659967 0.045329265 0.027269501 0.031585645
000060 45 f0 43 3d 5e bc 87 3d 7d f3 a8 3d 61 6b de 3d
       0.04783656 0.06627725 0.08249567 0.10860325
000070 d4 7c 2d 3d 72 3a f2 bd fc 75 47 bc 46 7d e0 3d
       0.042355374 -0.11827554 -0.012174126 0.10961394
000080 98 7f 64 be 78 97 94 be a2 5a 6e be 5c d7 1f be
       -0.22314298 -0.2902181 -0.23276761 -0.15609497
000090 34 96 bd 3d 4f 6f a8 3e d3 78 b6 3e 9e 49 57 3e
       0.092571646 0.32897422 0.35639057 0.21024176
0000a0 97 b9 7c 3d 56 ce ef bd 96 cc 2b be 42 d6 53 be
       0.06170043 -0.11709277 -0.16777262 -0.20687202
0000b0 41 8e 57 be eb cd 47 be 72 ce 1f be 2d fa 87 be
       -0.2105036 -0.19512145 -0.15606096 -0.26558056
0000c0 e2 87 77 be 60 6c 30 be 64 fc ae bd b9 8f af bd
       -0.24172929 -0.17228842 -0.085442334 -0.08572335
0000d0 23 67 b1 bd 4a 06 10 bd 41 d6 9c bc 88 91 bf 3b
       -0.0866225 -0.035162248 -0.019145133 0.005846206
0000e0 c5 6b 52 3d 12 ef 25 bd 59 42 30 3d 77 15 09 be
       0.05137231 -0.0405112 0.043032024 -0.13387094
0000f0 59 2f d6 3c 9f f7 e3 bd d4 ad 3f be 0f a0 cc bd
       0.026145624 -0.11131214 -0.18718654 -0.09991466
000100 d0 83 27 3d 84 30 1b 3e 8d d9 dd 3e 0f 4b e4 3e
       0.04089719 0.15155226 0.4333004 0.44588515
000110 c2 ff 9f 3e 07 9a 35 3e b5 a2 25 3e 77 b6 1b 3e
       0.31249815 0.17734538 0.16175349 0.15206324
000120 f4 1f b9 3d 40 60 9a bc 5b 6f 26 bd ab bb 9c bd
       0.09039298 -0.018844724 -0.04063354 -0.07652982
000130 f3 11 e4 bd f5 14 27 be 62 2b f7 bd c3 29 e1 bd
       -0.11136236 -0.16316588 -0.120688215 -0.109942935
000140 90 93 a3 bd 29 d8 8d bd 0d 29 89 bd 54 99 88 bd
       -0.0798713 -0.06925995 -0.06697283 -0.0666987
000150 dd b1 24 bd 47 68 cf bc a7 60 43 bd 52 eb 39 bd
       -0.040208686 -0.025318278 -0.047699597 -0.045390435
000160 f9 a7 2b 3d d2 5f 9b 3d 81 4b e9 3d 7d 53 ff 3d
       0.041908238 0.07586636 0.11391354 0.12467096
000170 38 f3 aa 3d 60 44 88 3c bf 00 b9 3c 6c 9e 1a 3d
       0.083471715 0.016634166 0.022583364 0.03774874
000180 01 b5 a4 3c a5 c8 89 bc 4c 8b c9 bc b3 1a a4 bc
       0.02010584 -0.016819308 -0.024602555 -0.020032262
000190 8a e6 9d 3b de c1 ee 3c 32 d1 34 3d fe 33 77 3d
       0.004818742 0.029145177 0.044144817 0.060352318
0001a0 76 f5 8d 3d ed 3d a3 3d 17 f5 ba 3d bc d8 d2 3d
       0.069315836 0.07970796 0.091287784 0.10295245
0001b0 bb f8 d3 3d a8 66 d8 3d fc ab da 3d 75 ec a9 3d
       0.10350176 0.10566455 0.10677335 0.08297054
0001c0 45 9c ab 3d 07 63 82 3d 09 3a 78 3d 94 da 35 3d
       0.083794154 0.06366544 0.06060222 0.044397905
0001d0 e2 61 74 bd 57 40 24 3d fa bd e7 3d d7 a4 37 3e
       -0.05966366 0.04010042 0.11315532 0.17933975
0001e0 40 87 0b 3e bb db e2 3d 82 04 9d 3d 1f 29 81 ba
       0.13625813 0.110770665 0.076668754 -0.0009854174
0001f0 f2 f6 76 bd 90 88 67 bd 28 83 46 bd 77 8c 96 bd
       -0.0602941 -0.05652672 -0.048464924 -0.0735101
000200 fb 32 c4 bc 65 b1 9f bb a1 3b aa bc fc 45 ea bc
       -0.02395009 -0.004873442 -0.020780386 -0.028597824
000210 35 44 3d bd 0b e8 7c bd 0b 60 43 bd 43 ad 8c bd
       -0.046207625 -0.06174473 -0.047699016 -0.068689846
000220 ff 27 ad bd b2 bd b0 bd 18 3f bf bd c0 b9 e1 bd
       -0.08454894 -0.086299315 -0.09338206 -0.11021757
000230 6e be e8 bd 05 19 e2 bd e0 a0 fc bd 3d 87 09 be
       -0.113644466 -0.11039928 -0.12335372 -0.13430496
000240 32 e8 f1 bd 78 54 aa bd d1 34 a6 3d 93 14 0f 3d
       -0.11811866 -0.083168924 0.08115543 0.03493173
000250 22 58 ff bd 4b dc 19 be 50 ad 04 be 8b 5d 18 be
       -0.12467982 -0.15025441 -0.12956738 -0.14879434
000260 6a bd b1 bd 21 b7 b9 bd f7 88 a4 bd 65 e0 b0 bd
       -0.08678706 -0.09068132 -0.080339365 -0.0863655
000270 d0 65 c9 bd da c4 25 be e6 8a 3c be 2d 32 3c be
       -0.09833872 -0.16188374 -0.1841236 -0.18378516
000280 c5 84 10 be ce 44 16 be 8c 08 da bd 56 30 f1 bd
       -0.14113148 -0.14674684 -0.106461614 -0.117767975
000290 c8 46 b6 bd bc f8 91 bd fc 1d ba bc 83 4e f3 bc
       -0.08900219 -0.071275204 -0.022719376 -0.029700523
0002a0 c5 dd 0d bd ab 24 c7 3b 32 1c dd 3b 11 97 99 3c
       -0.034635324 0.006077369 0.006747746 0.018748792
0002b0 19 94 04 3d 2f 1a ef bc 73 6e a8 bd cf 2e 93 bd
       0.0323678 -0.02918729 -0.082241915 -0.071866624
0002c0 fc 44 1d be 2a a6 81 be 6d 4a 72 be 07 af 47 be
       -0.15358347 -0.25322086 -0.23661204 -0.19500361
0002d0 01 a6 4d be 7e 17 21 be 8a c9 12 be 07 f9 19 be
       -0.20082857 -0.15731618 -0.14334694 -0.15036403
0002e0 a0 48 fc bd c1 eb bd bd 3a 43 41 be 5c 00 45 be
       -0.123185396 -0.09273482 -0.18873301 -0.19238418
0002f0 de c6 58 be 52 61 14 be bb 36 31 be 85 06 26 bd
       -0.21169612 -0.1449025 -0.17306034 -0.04053356
000300 9d 5c 9d bd 78 74 ba bc d2 57 8f 3c db 94 7d 3d
       -0.0768368 -0.022760615 0.01749793 0.061909538
000310 4e 44 21 3d 91 93 4d 3d 7a fd 89 3d aa c4 b2 3d
       0.03937178 0.05018956 0.067378 0.08728917
000320 aa 40 ce 3d a6 88 02 3e cc 1a 1d 3d 06 b6 02 3e
       0.100709274 0.1274744 0.038355634 0.12764749
000330 3f ae 33 3e d3 68 af 3e 0a a7 c8 3e b8 7e b4 3e
       0.17546938 0.34259662 0.3918994 0.3525293
000340 e5 a2 38 3e 8b 29 00 3d c9 f6 88 bc 21 55 01 3d
       0.1803089 0.03128962 -0.016719239 0.031575326
000350 29 c0 db 3d 74 8c 17 3d c8 b3 19 bd d9 4d 50 bd
       0.10730011 0.03699918 -0.03752497 -0.05085549
000360 cb df 04 bc 9f 3a d9 3c 27 ef 48 3d fc d3 92 3d
       -0.008109997 0.02651721 0.0490562 0.07169339
000370 df 7a c5 3d a6 c0 f7 3d e4 dc 13 3e 3a 05 1e 3e
       0.096425764 0.12097292 0.14439732 0.15431681
000380 09 2b 1a 3e 70 a8 18 3e db 7c 1a 3e aa 60 e6 3d
       0.15055479 0.14908004 0.15086691 0.11248906
000390 2f ae c9 3d 0a 32 4f 3d 13 d7 df 3c f3 1d 4f bd
       0.09847676 0.05058483 0.027324235 -0.05056567
0003a0 dc a3 ef bd 24 fb e1 3d 2f fd b5 3e 14 e1 c2 3e
       -0.117011756 0.110342294 0.35544726 0.38062346
0003b0 9a 81 b1 3e da 7e 33 3e b8 c8 de 3c 47 07 5d bc
       0.3466919 0.17528859 0.02719532 -0.013490505
0003c0 be 04 14 3d e3 c7 84 3d af 9a 19 bb 8f 62 35 bd
       0.036137335 0.06483438 -0.0023438146 -0.044283446
0003d0 63 60 56 bd b2 17 80 bc 23 a0 b1 3c 47 ef 4f 3d
       -0.052338015 -0.015636299 0.021682804 0.050765302
0003e0 c6 cd 8f 3d 58 df cf 3d f9 52 e9 3d fa 21 05 3e
       0.0702167 0.10150021 0.11392779 0.13001242
0003f0 aa 79 0b 3e ae db 0d 3e 1a c4 0b 3e f2 27 e4 3d
       0.1362063 0.13853332 0.13649026 0.111404315

bias f4 [7]
000000 75 a3 af bd 7e 75 d1 bc 44 8f d0 3d 91 9d 58 3c
       -0.08576099 -0.02556872 0.10183576 0.0132211605
000010 88 22 24 3e 29 72 6f be b0 9d df 3c
       0.16028798 -0.23383392 0.027296871
