e-nose-cnn/net/mobilenet.pkl (torch_old, 23095 bytes, 10 tensors)

weight f4 [10, 1, 1, 3]
0	0x3f45dd0c	0.77290416
1	0x3f01989f	0.50623506
2	0x3e3955b2	0.18099096
3	0xbf80ad12	-1.0052817
4	0xbf1b8490	-0.6074915
5	0xbf8493af	-1.035757
6	0xbe2c9c10	-0.16856408
7	0x3eaeca20	0.34138584
8	0x3ea42024	0.3205577
9	0x3f842013	1.0322288
10	0x3fa31451	1.2740575
11	0x3f9458c9	1.1589595
12	0xbe4113b0	-0.18855166
13	0x3e93d3fa	0.28872663
14	0x3d2ba192	0.041902132
15	0xbfa21207	-1.2661752
16	0xbf852294	-1.0401177
17	0xbf27bbf4	-0.6552117
18	0xbedbde39	-0.4294298
19	0xbf3c43a2	-0.735407
20	0xbed141a1	-0.40870383
21	0xbee4f98b	-0.44721636
22	0xbf716b25	-0.94304115
23	0xbe58e988	-0.21182835
24	0xbf4645ac	-0.7745006
25	0xbf346a20	-0.70474434
26	0xbf63e7e3	-0.89025706
27	0xbf750f46	-0.9572643
28	0xbf7e7b26	-0.9940666
29	0xbf105a65	-0.5638793

bias f4 [10]
0	0x3e8bde08	0.27317834
1	0x3f58fa22	0.8475667
2	0xbef15505	-0.47135177
3	0x3ec796ad	0.38982144
4	0x3d08bb21	0.033381585
5	0x3f1a32c3	0.60233706
6	0xbeb200ce	-0.3476624
7	0x3e89196b	0.26777205
8	0x3dfe1784	0.12406829
9	0x3e7ed2fc	0.24885172

weight f4 [6, 10, 1, 1]
0	0xbf3c732f	-0.73613256
1	0x3fc3621c	1.5264316
2	0x3f289829	0.6585718
3	0xbf6db5f3	-0.9285576
4	0xbda96606	-0.082714126
5	0xbf2e3055	-0.680425
6	0xbe93254a	-0.28739387
7	0xbf30cd57	-0.69063324
8	0xbf05c40c	-0.5225227
9	0x3c29c2a7	0.01036135
10	0x3dbfe95d	0.093706824
11	0x3d6a1a12	0.05715377
12	0x3eed0d8c	0.46299398
13	0x3eca9e38	0.39573836
14	0x3eae8ea1	0.34093192
15	0xbfd2c8a9	-1.6467487
16	0x3e7351ba	0.23761645
17	0x3dcac064	0.09899977
18	0x3f9ef05f	1.2417105
19	0x3e43511b	0.19073908
20	0x3ebecc91	0.37265447
21	0x3e9fad7a	0.3118704
22	0x3e091b13	0.13389234
23	0x3fa2c4d3	1.2716316
24	0xbd3a2b57	-0.04545149
25	0xbe8b429e	-0.27199262
26	0x3f308128	0.68947077
27	0x3f50872e	0.8145627
28	0x3ede491d	0.43415156
29	0xbfadd6e6	-1.3581207
30	0x3ef92cb9	0.48666933
31	0xbea9223d	-0.33033934
32	0xbc8a9dc4	-0.016920932
33	0xbe10a98a	-0.14127174
34	0x3f1bd70a	0.60875
35	0x3e96ac83	0.2942849
36	0x3d311766	0.043235205
37	0x3e8fa2f3	0.28054008
38	0x3e7501fa	0.23926535
39	0xbe558930	-0.20853114
40	0xbe37d8f3	-0.17953853
41	0x3e7cbb4d	0.24680825
42	0xbec0536b	-0.37563643
43	0x3d67136d	0.05641501
44	0x3bf6f6dd	0.0075367526
45	0xbec07857	-0.37591812
46	0xbdcf144c	-0.10111293
47	0xbe8c14e9	-0.27359703
48	0xbdc8ecf3	-0.098108195
49	0xbe3a7250	-0.1820767
50	0x3e8c72d5	0.2743136
51	0xbeb84704	-0.3599168
52	0x3dd1aa68	0.102375805
53	0x3e1c7491	0.15278842
54	0xbea4f479	-0.32217768
55	0xbe872f2e	-0.26403183
56	0x3e3c5b75	0.18394263
57	0xbe903561	-0.28165725
58	0x3e56cef7	0.20977388
59	0x3eb6e7b6	0.35723656

bias f4 [6]
0	0x3e844e32	0.25840908
1	0x3d06d0e0	0.032914042
2	0xbe34bd9c	-0.17650455
3	0xbd2f004c	-0.042724892
4	0xbcee1a62	-0.029065315
5	0xbc884374	-0.016633727

weight f4 [6, 1, 1, 4]
0	0xbee1587a	-0.44012815
1	0xbf309659	-0.6897941
2	0xbf9c5c44	-1.2215657
3	0xbf832297	-1.0244931
4	0xbf8019ee	-1.0007913
5	0xbfa0a5af	-1.2550563
6	0xbf0db966	-0.5536102
7	0xbed78314	-0.42092192
8	0x3f528319	0.8223129
9	0x3f274044	0.65332437
10	0xbd4b2410	-0.04959494
11	0xbe15eddf	-0.14641522
12	0xbee685ae	-0.45023865
13	0x3ee08fc5	0.43859687
14	0x3f081a38	0.53165007
15	0xbe434cf9	-0.19072331
16	0x3df71580	0.12064648
17	0x3e30f096	0.17279276
18	0xbe079d65	-0.13243635
19	0x3e6aa005	0.22912605
20	0x3f02ad58	0.5104575
21	0xbe1917f2	-0.1495054
22	0x3de571b7	0.1120333
23	0xbec13182	-0.37733084

bias f4 [6]
0	0x3fc13a45	1.5095907
1	0x3f866bda	1.0501664
2	0xbd901525	-0.07035283
3	0xbc88080c	-0.0166054
4	0xbdae75ab	-0.08518537
5	0x3f029ff1	0.510253

weight f4 [10, 6, 1, 1]
0	0xbeff3bd5	-0.49850336
1	0x3f0d9f13	0.55320853
2	0x3f9c0cb8	1.2191381
3	0xbf3269c3	-0.6969263
4	0xbd89fcc6	-0.06737666
5	0xbd749844	-0.059715524
6	0xbfb6c1c7	-1.4277886
7	0x3ebf705a	0.37390405
8	0xbe188356	-0.1489385
9	0xbd666721	-0.056250695
10	0xbee4bbb2	-0.4467445
11	0xbed2d8f0	-0.41181135
12	0x3f1f2ba2	0.62175953
13	0xbfa3c424	-1.2794232
14	0x3eaf676f	0.342586
15	0x3e742397	0.23841701
16	0x3e51b22f	0.20478128
17	0x3e8253dd	0.25454608
18	0x3f7ce3f9	0.9878536
19	0xbee7b31b	-0.45253834
20	0xbfb272d9	-1.3941299
21	0x3e9bfd60	0.30466747
22	0x3e2d9523	0.16951422
23	0xbec03385	-0.37539306
24	0xbd0fa6d8	-0.035071224
25	0xbe339445	-0.17537029
26	0xbf2c0867	-0.6720032
27	0xbeb624ed	-0.35575047
28	0x3dd8d77d	0.10587976
29	0xbd087404	-0.033313766
30	0xbf9e27c9	-1.2355891
31	0x3f51bedf	0.8193187
32	0xbf3fcef8	-0.74925184
33	0xbee29434	-0.44253695
34	0x3e026985	0.12735565
35	0x3f1a1341	0.6018563
36	0x3f5b42dc	0.85648894
37	0xbf221ca5	-0.6332496
38	0x3eb51032	0.3536392
39	0x3ee82648	0.45341706
40	0xbebffad4	-0.37496054
41	0xbedeb4e1	-0.43497375
42	0x3ddbd949	0.10734803
43	0xbdf9fcd4	-0.12206426
44	0xbef84cfc	-0.48496234
45	0xbeca6132	-0.3952728
46	0x3ee46368	0.4460709
47	0xbea712b1	-0.32631448
48	0x3f8341d4	1.0254464
49	0xbf8d2837	-1.1027898
50	0xbf678086	-0.90430486
51	0xbe26e63a	-0.16298762
52	0xbe5c6a10	-0.21524835
53	0x3efb7f60	0.49120617
54	0x3f8c3fdf	1.0956992
55	0x3f34413e	0.7041205
56	0xbe80e0c6	-0.2517149
57	0x3e7adf95	0.24499352
58	0x3eaa2591	0.33231786
59	0xbe6ebdb9	-0.23314561

bias f4 [10]
0	0xbeef72da	-0.46767312
1	0x3ebc24bd	0.3674678
2	0xbccd75b6	-0.025080543
3	0xbdef13d5	-0.116737045
4	0xbd2d3dec	-0.04229538
5	0x3f040d16	0.5158247
6	0xbf351fc6	-0.7075161
7	0xbda1d63b	-0.07902189
8	0xbd1cbaae	-0.03826397
9	0xbf634cff	-0.8878936

weight f4 [7, 280]
0	0xbf7f729c	-0.99784255
1	0x3eed6630	0.46367025
2	0x3f351b9e	0.70745265
3	0x3f1e4664	0.6182616
4	0x3ef41b9d	0.47677317
5	0x3e89bc08	0.2690127
6	0x3e0ad46d	0.13557597
7	0x3d92f3aa	0.071753815
8	0x3cd8989c	0.026439957
9	0x3d3a3e22	0.04546941
10	0x3c979dd1	0.01850787
11	0xbd594315	-0.05304249
12	0xbcc06b0a	-0.02348854
13	0x3d9ee80c	0.07759103
14	0x3d4674b9	0.04845116
15	0xbbeebc11	-0.007285603
16	0xbd2417a7	-0.04006162
17	0xbd9eed1b	-0.07760068
18	0xbd45ab69	-0.048259173
19	0xbd1f7096	-0.03892573
20	0xbd7c9298	-0.06166324
21	0xbb1d19b7	-0.0023971626
22	0xbd978b0d	-0.07399569
23	0xbdd740af	-0.10510384
24	0xbe1214a1	-0.14265682
25	0xbe0a5b9b	-0.13511507
26	0xbe0ffe1b	-0.14061777
27	0xbe541ba0	-0.20713663
28	0x3e7081d5	0.23487027
29	0x3e112407	0.141739
30	0x3de2c9e4	0.11073664
31	0x3db4df5e	0.088316664
32	0x3d719344	0.058978334
33	0x3cf088bf	0.02936208
34	0xbcc75fb1	-0.024337621
35	0xbdba2766	-0.09089546
36	0xbde05a80	-0.109547615
37	0xbd88fbd9	-0.06688661
38	0xbca3079e	-0.019901093
39	0x3cb13fbe	0.02163684
40	0x3d4e932a	0.050433315
41	0x3db4917b	0.08816811
42	0x3df8a948	0.12141663
43	0x3e07de36	0.1326836
44	0x3e14ca4b	0.14530294
45	0x3e39f456	0.18159613
46	0x3e4ec713	0.20193128
47	0x3e46bd63	0.19408183
48	0x3e213d55	0.15746053
49	0x3df64bf0	0.12026203
50	0x3de370fe	0.11105536
51	0x3dfddbf2	0.12395467
52	0x3e02e802	0.12783816
53	0x3df9550c	0.121744245
54	0x3de402b2	0.111333266
55	0x3d82459b	0.063609324
56	0x3e555289	0.20832266
57	0x3e873312	0.2640615
58	0x3c1c993b	0.009558017
59	0xbb8617c2	-0.0040921876
60	0x3dea320b	0.11435326
61	0x3e4a154e	0.1973469
62	0x3e62f690	0.22164369
63	0x3e0f3108	0.13983548
64	0x3cf6f9c6	0.030148398
65	0x3b4151ae	0.0029498148
66	0x3d1b3705	0.037894268
67	0x3dd0839d	0.10181353
68	0x3e00eddb	0.12590735
69	0x3dc12da1	0.09432531
70	0x3d28c67e	0.041204922
71	0x3d1a677d	0.03769635
72	0x3d1cc681	0.038275246
73	0x3c8bee7f	0.017081497
74	0xbc16c682	-0.009202601
75	0xbc8fd38b	-0.017556926
76	0xbc8912a2	-0.016732518
77	0x3c47a2ca	0.012184808
78	0x3c232610	0.009957805
79	0xbc0916b9	-0.008367234
80	0xbccee044	-0.025253423
81	0xbd3179a7	-0.043328907
82	0xbd3fa16a	-0.046784796
83	0xbd78eafe	-0.06077098
84	0xbd4e0745	-0.0502999
85	0xbea34cc7	-0.31894514
86	0xbeb195e9	-0.34684685
87	0xbe8b7440	-0.2723713
88	0xbe535237	-0.20636831
89	0xbd829377	-0.06375783
90	0x3d0da414	0.034580305
91	0x3d3f2839	0.04666922
92	0x3d8312a1	0.064000376
93	0x3c98ad28	0.018637255
94	0x3b95c7b1	0.004570924
95	0x3cf866a2	0.030322377
96	0x3d24722a	0.040147938
97	0xbab45ea0	-0.0013761111
98	0xbc8bc05d	-0.0170595
99	0xbbbad204	-0.0057013053
100	0x3c3b3c40	0.011427939
101	0xbb9832a5	-0.004644709
102	0xbcaea663	-0.021319574
103	0xbce3f877	-0.027828438
104	0xbcba6595	-0.022753516
105	0xbc251095	-0.010074754
106	0x3ae88578	0.0017739972
107	0xbbbf605e	-0.0058403453
108	0xb8f920c6	-0.0001187935
109	0x3bbb9d51	0.0057255407
110	0x3c645e87	0.013938553
111	0x3cc299ee	0.02375504
112	0xbcc7ebc1	-0.024404408
113	0xbdd1b08a	-0.1023875
114	0xbdf0bc54	-0.11754671
115	0xbddb4aea	-0.10707648
116	0xbdd56091	-0.10418809
117	0xbd991400	-0.07474518
118	0xbd7319ce	-0.05935078
119	0xbd14a30f	-0.036288317
120	0xbc5baecf	-0.013408377
121	0xbc41aa40	-0.011820376
122	0xbacb9dd6	-0.001553471
123	0x3c086161	0.008323998
124	0x3c072584	0.0082486905
125	0x3a37856a	0.0007000776
126	0x3c1bda9c	0.00951257
127	0x3c8c7b0b	0.017148515
128	0x3cd93045	0.026512275
129	0x3d25ff0b	0.04052643
130	0x3d2f2044	0.04275538
131	0x3d35de74	0.0444016
132	0x3d3f80ae	0.046753578
133	0x3d1d37e9	0.0383834
134	0x3d473070	0.048630178
135	0x3d60a786	0.054847263
136	0x3d82a517	0.06379145
137	0x3d8d52c0	0.06900549
138	0x3d87025b	0.06592246
139	0x3d8ce342	0.068792835
140	0x3daf8fc2	0.085723415
141	0x3dd84ae3	0.105611585
142	0x3dcfb339	0.10141606
143	0x3d4b2a17	0.049600687
144	0xbb9c3059	-0.0047665057
145	0xbdaa03db	-0.083015166
146	0xbe00147e	-0.12507817
147	0xbe024fc1	-0.12725736
148	0xbdae9452	-0.085243836
149	0xbd39f356	-0.04539808
150	0xbcf45cf4	-0.02982948
151	0xbca196a3	-0.01972515
152	0xbc9ee058	-0.019394085
153	0xba7a5697	-0.0009549646
154	0x3d28044d	0.041019727
155	0x3d815c4c	0.06316432
156	0x3d89c7ff	0.06727599
157	0x3de4cfb4	0.11172429
158	0x3e003a6e	0.12522289
159	0x3e041c68	0.12901461
160	0x3dad1fe1	0.08453346
161	0x3c763ddf	0.0150294
162	0x3c49afc1	0.012309969
163	0x3d3f75c6	0.046743177
164	0x3d6bd55b	0.05757652
165	0x3d696247	0.05697849
166	0x3d16ae99	0.036787603
167	0x3a700c98	0.000915715
168	0x3edc3785	0.43011108
169	0x3f1e202a	0.6176783
170	0x3e79b7aa	0.24386469
171	0x3e249f65	0.16076429
172	0x3e852301	0.26003268
173	0x3ea22a12	0.31672722
174	0x3e9fcf18	0.31212687
175	0x3e5586b5	0.20852168
176	0x3dc02aa4	0.09383133
177	0x3d0c888b	0.034309905
178	0x3cbd56b8	0.02311264
179	0x3d294c76	0.041332684
180	0x3d54e58e	0.051976733
181	0x3cc5a43d	0.024126166
182	0xbd024240	-0.031801462
183	0xbd1ac4f7	-0.037785497
184	0xbd490f3a	-0.049086787
185	0xbdb1d8a2	-0.086838976
186	0xbdf8c527	-0.12146979
187	0xbe076260	-0.13221121
188	0xbe028ac8	-0.12748253
189	0xbdddd101	-0.1083088
190	0xbdf3408f	-0.11877548
191	0xbe0caf0a	-0.13738647
192	0xbe2799be	-0.16367242
193	0xbe3e7ba2	-0.1860185
194	0xbe3e765b	-0.18599837
195	0xbe53ff2f	-0.20702814
196	0xbd69ec6f	-0.057110246
197	0xbdd67982	-0.104723945
198	0xbde17e97	-0.11010473
199	0xbdbc8aef	-0.09206187
200	0xbd90463e	-0.07044648
201	0xbd175905	-0.03695013
202	0xbcb23853	-0.021755373
203	0xbba51bac	-0.005038699
204	0x3c21c0d7	0.009872637
205	0x3b944333	0.0045246123
206	0x3bfd7e2c	0.007735988
207	0x3c74a6b1	0.01493232
208	0x3c608f76	0.013706079
209	0x3afa2eb0	0.00190874
210	0x3b752eb5	0.0037411873
211	0x3c1da761	0.009622426
212	0x3c814704	0.015780933
213	0x3cba1f10	0.02271989
214	0x3ca18093	0.01971463
215	0x3ca2aaa4	0.019856758
216	0x3ca9cf00	0.020728588
217	0x3ca85b61	0.020551385
218	0x3ce3c870	0.027805537
219	0x3d0507b9	0.032478068
220	0x3d1cbe1a	0.038267232
221	0x3d21eb63	0.039531123
222	0x3d2c066d	0.041998316
223	0x3d431bbd	0.047633875
224	0xbe2341e4	-0.15943104
225	0xbdc59614	-0.09647766
226	0xbe6b2ab9	-0.22965516
227	0xbe4940e1	-0.19653656
228	0xbdd1f29e	-0.10251354
229	0x3d581aaf	0.052759822
230	0x3e189958	0.14902246
231	0x3dc59311	0.09647191
232	0x3d4e37f1	0.05034632
233	0xb955b177	-0.00020379374
234	0x3c18be1e	0.009322671
235	0x3d96f4a6	0.07370882
236	0x3ddf1504	0.1089268
237	0x3d817839	0.06321759
238	0x3cd5da89	0.026105182
239	0x3d07436e	0.03302329
240	0x3d666ca6	0.05625596
241	0x3d1ee2df	0.03879058
242	0x3b43cfd1	0.0029878507
243	0xbbce8bee	-0.006303302
244	0xbb6f28ea	-0.0036492893
245	0x3c5545a7	0.013017095
246	0x3cc38dec	0.023871385
247	0x3b8b7ef0	0.0042570755
248	0x3bbbe8a1	0.0057345186
249	0x3beea82a	0.0072832303
250	0x3c20bf70	0.009811267
251	0x3c58dce5	0.013236259
252	0x3f2ba55f	0.6704921
253	0x3e992bf7	0.29916355
254	0xbdc90c99	-0.09816856
255	0xbe322434	-0.17396623

bias f4 [7]
0	0xbe1cc2d6	-0.15308699
1	0x3d321fa6	0.043487214
2	0xbd8840a9	-0.06652958
3	0x3e4f34ff	0.2023506
4	0x3f29235f	0.66069597
5	0xbe9bf645	-0.30461326
6	0xbeafc2a7	-0.34328195
