e-nose-cnn/net/mobilenet2pool2.pkl (torch_old, 28902 bytes, 6 tensors)

weight f4 [15, 10, 1, 3]
0	0xbe27a8aa	-0.16372934
1	0x3dbe9f3e	0.09307717
2	0xbe87872b	-0.26470312
3	0x3ecd3851	0.40082029
4	0x3c31f9e9	0.010862806
5	0x3f05c21f	0.5224933
6	0x3bed9738	0.0072506927
7	0xbe551e71	-0.20812394
8	0xbe9a52eb	-0.30141386
9	0x3f4fd065	0.8117736
10	0x3f5ab603	0.8543398
11	0x3f440e89	0.7658468
12	0x3e298af5	0.16556914
13	0xbe22fd3d	-0.15916915
14	0xbd215e6a	-0.03939668
15	0xbd9185da	-0.07105608
16	0x3e8bf3ca	0.27334434
17	0xbe221da1	-0.15831615
18	0xbf1a8183	-0.6035387
19	0xbecf5b6d	-0.4049944
20	0xbebb3c94	-0.36569655
21	0xbe9c5c06	-0.30538958
22	0xbe05563d	-0.13021179
23	0xbf08ae9f	-0.5339145
24	0x3ee905e8	0.4551232
25	0x3eea2813	0.457337
26	0x3e66aba8	0.22526419
27	0x3e7e8581	0.24855615
28	0x3eb9d254	0.3629328
29	0x3ec8b331	0.39199212
30	0xbe9e544e	-0.30923694
31	0xbe9a7fd4	-0.3017565
32	0xbf10face	-0.566327
33	0xbf2284da	-0.63483965
34	0xbf143d90	-0.57906437
35	0xbf3988a4	-0.7247412
36	0x3b872847	0.0041246745
37	0xbe743189	-0.23847021
38	0xbed392f2	-0.41323048
39	0xbdd75ef7	-0.1051616
40	0xbf1200e1	-0.5703259
41	0xbf1a8118	-0.6035323
42	0x3e239626	0.15975246
43	0x3de96364	0.113959104
44	0x3cd72b14	0.026265658
45	0x3e33d9ce	0.17563555
46	0x3da6960c	0.08134088
47	0xbe29d397	-0.16584621
48	0x3e9206a2	0.28520685
49	0x3eb156c8	0.3463652
50	0x3ee4ed10	0.44712114
51	0x3f00cb9c	0.50310683
52	0x3ef82ded	0.4847254
53	0x3e9f369e	0.31096357
54	0xbe4d00f4	-0.20019895
55	0xbe91223a	-0.28346425
56	0x3dc9dd9b	0.09856721
57	0x3ebf8a71	0.3741031
58	0x3bc22e90	0.005925961
59	0xbe1cf640	-0.15328312
60	0x3d67cd60	0.056592345
61	0xbe875eca	-0.26439506
62	0x3dad282b	0.08454927
63	0x3edbc4e4	0.42923653
64	0xbd0caeb7	-0.03434631
65	0x3ef83e7b	0.4848517
66	0xbe0be1e0	-0.13660383
67	0x3cb38296	0.021912854
68	0xbdc4f31d	-0.09616683
69	0xbed32acd	-0.41243592
70	0x3cd39bef	0.02583119
71	0xbeb9987b	-0.36249146
72	0x3d92a656	0.07160632
73	0x3e945e32	0.28978115
74	0x3e86aa31	0.2630172
75	0x3d1fcd20	0.03901398
76	0xbdbf423c	-0.09338805
77	0xbe5539d2	-0.20822838
78	0xbe0ba392	-0.13636616
79	0xbd89acd9	-0.06722421
80	0xbca39932	-0.01997051
81	0x3b841123	0.004030363
82	0x3e0c74a7	0.13716374
83	0x3e469daf	0.19396089
84	0xbd1b7321	-0.037951592
85	0xbec8884e	-0.39166492
86	0xbdada78f	-0.08479225
87	0xbfadca6c	-1.3577399
88	0xbf888261	-1.0664788
89	0xbf4a6598	-0.7906127
90	0x3ddf5371	0.10904587
91	0x3ea2ed33	0.31821594
92	0x3e93bb03	0.28853616
93	0xbe8dbca3	-0.2768298
94	0xbe95a3a0	-0.29226398
95	0x3e04d675	0.12972434
96	0xbe2bd070	-0.16778731
97	0x3e541a75	0.20713218
98	0xbdb4826a	-0.08813937
99	0xbde3f457	-0.111305885
100	0xbe7ee875	-0.24893363
101	0xbcdffd7e	-0.027342554
102	0xbdd27e88	-0.1027804
103	0x3e343d52	0.17601517
104	0xbd6c6079	-0.05770919
105	0x3e63890f	0.22220252
106	0x3d88bcd5	0.06676642
107	0xbe2ff364	-0.1718269
108	0x3ea83558	0.32853198
109	0x3e9eafdb	0.30993542
110	0x3d0dce83	0.034620773
111	0xbe96b971	-0.29438356
112	0xbe33929a	-0.17536393
113	0xbe957b58	-0.29195666
114	0x3e6483b0	0.2231586
115	0xbe0df119	-0.13861503
116	0xbe23f32f	-0.16010736
117	0xbee8c176	-0.454601
118	0x3c0339fa	0.008009428
119	0xbe380bf1	-0.17973305
120	0xbf023c08	-0.5087285
121	0xbd4c20a1	-0.049835805
122	0xbe07be7e	-0.13256261
123	0xbf1f45aa	-0.62215674
124	0xbe3b9b78	-0.18321025
125	0xbf20e72a	-0.6285273
126	0xbec7d8ea	-0.3903268
127	0xbec6fb46	-0.3886358
128	0xbeb584dc	-0.35452926
129	0xbeb2ae08	-0.348984
130	0xbec10fac	-0.3770727
131	0xbef40e38	-0.47667098
132	0xbe98ce3a	-0.29844838
133	0x3e4a1111	0.19733073
134	0xbe8588e9	-0.26081017
135	0x3e0d1e4a	0.13781086
136	0xbda51af8	-0.080617845
137	0xbce70a5a	-0.028203178
138	0xbc852b45	-0.016255984
139	0xbe9abfc5	-0.30224434
140	0xbec0b3a1	-0.37637046
141	0x3e586a5a	0.2113432
142	0x3e9fb2d6	0.31191128
143	0x3e383a5f	0.17991017
144	0x3d0d43ad	0.03448837
145	0x3de5d931	0.112230666
146	0xbe732ea0	-0.23748255
147	0x3eaeafb0	0.34118414
148	0x3e66f387	0.22553836
149	0xbe89063c	-0.2676257
150	0xbecfa0d2	-0.40552384
151	0x3cb63dfe	0.022246357
152	0xbeaff60e	-0.34367412
153	0x3ed6097e	0.41804117
154	0x3ee7d6ce	0.4528107
155	0x3dbfab3b	0.093588315
156	0xbe93a771	-0.28838685
157	0xbba8ee79	-0.0051553813
158	0xbe716ff9	-0.2357787
159	0xbeafacda	-0.34311563
160	0xbec98485	-0.39358917
161	0xbeafddd5	-0.34348932
162	0x3cfe1e38	0.031020269
163	0xbed4dbe0	-0.41574
164	0x3dd1293e	0.102129444
165	0x3d3609e9	0.044443045
166	0x3dc0492b	0.09388956
167	0x3e040958	0.1289419
168	0x3b439f88	0.0029849727
169	0xbde8b4eb	-0.11362632
170	0xbe5d577c	-0.21615404
171	0x3f1a01cd	0.60159
172	0x3ed2c96b	0.41169295
173	0x3f08c48f	0.53424925
174	0xbf83ae87	-1.0287637
175	0xbf2f9ef7	-0.68601936
176	0xbf14d02b	-0.5813014
177	0xbf43f9ee	-0.7655324
178	0xbe6ac866	-0.22928008
179	0xbf4078c1	-0.75184256
180	0x3ede78ed	0.43451634
181	0x3db989bd	0.090594746
182	0x3eb11056	0.34582776
183	0x3ecd66d8	0.40117526
184	0x3f09f32c	0.53886676
185	0x3f0f67fa	0.5601803
186	0xbe1aaf13	-0.15105848
187	0x3e1ccf75	0.15313514
188	0xbe549542	-0.20760062
189	0xbf0cda57	-0.5502066
190	0xbf1dccb3	-0.6164047
191	0xbee909af	-0.455152
192	0x3dd1a2b1	0.10236109
193	0x3dd18729	0.10230858
194	0xbdf7fe60	-0.12109065
195	0xbd462966	-0.048379324
196	0x3e0fe2ea	0.14051405
197	0xbe22608b	-0.1585714
198	0x3d1950fb	0.037430745
199	0x3e69625f	0.22791432
200	0x3e00c5ee	0.12575504
201	0xbe32bfcc	-0.17455977
202	0xbef9b556	-0.4877116
203	0xbe728962	-0.2368522
204	0x3e99a9e2	0.30012423
205	0x3e84f4de	0.2596807
206	0x3ebe346f	0.3714938
207	0xbf179287	-0.5920796
208	0xbdada5c7	-0.08478885
209	0xbece988a	-0.40350753
210	0xbe0807b4	-0.13284189
211	0xbe80566a	-0.2506593
212	0x3e731835	0.23739703
213	0x3e6787f7	0.2261046
214	0x3eebc020	0.46045017
215	0x3e2d0f88	0.16900456
216	0x3e4b2c66	0.19841155
217	0xbe158a62	-0.1460357
218	0x3e3feb6c	0.1874215
219	0x3e0a6fdb	0.13519232
220	0x3e1e68c1	0.15469648
221	0x3e3745d1	0.17897727
222	0xbcbb15d0	-0.02283755
223	0x3de8da09	0.11369712
224	0xbe28d2a1	-0.16486599
225	0xbe81f79d	-0.25384226
226	0xbcc6866d	-0.024234021
227	0xbd676229	-0.056490097
228	0x3df2f0db	0.11862346
229	0x3e03808a	0.12842003
230	0xbd35011a	-0.044190504
231	0x3e821a68	0.2541077
232	0x3e85214f	0.26001975
233	0x3eaebaba	0.34126836
234	0x3f094c74	0.53632283
235	0x3f0db6b8	0.5535693
236	0x3f2b1941	0.6683541
237	0x3c7273f9	0.014798158
238	0xbe600eee	-0.21880695
239	0xbe3f3846	-0.1867381
240	0x3d9d6e36	0.07687037
241	0xbe1095e4	-0.14119679
242	0x3e7f248a	0.24916282
243	0x3ecc27a6	0.39874
244	0xbd43d394	-0.0478092
245	0x3d99faba	0.075185254
246	0x3d51f141	0.05125547
247	0xbd96e361	-0.07367588
248	0x3e2e6c94	0.17033607
249	0xbe9842f6	-0.29738587
250	0xbeac5ef3	-0.3366619
251	0xbeb5659d	-0.35429087
252	0xbe02db91	-0.1277907
253	0x3d21b186	0.03947594
254	0xbd6fbda7	-0.058530476
255	0xbdd52f57	-0.1040942

bias f4 [15]
0	0x3dc7f5e0	0.09763694
1	0x3eed0929	0.4629605
2	0x3d5bc4b4	0.053654388
3	0xbcf2cbc9	-0.029638188
4	0x3e264916	0.16238818
5	0x3d282326	0.041049145
6	0x3d958f80	0.07302761
7	0xbc80b7c4	-0.015712626
8	0x3e557d94	0.20848686
9	0x3eb7f684	0.35930264
10	0xbb4cf6b6	-0.003127498
11	0x3e8ac78d	0.2710537
12	0x3ee4dfb2	0.44701916
13	0x3e82c2fc	0.25539386
14	0x3f092f26	0.5358757

weight f4 [20, 15, 1, 3]
0	0xbe95900d	-0.29211465
1	0xbeb35a9a	-0.3503006
2	0xbea9957a	-0.33121854
3	0x3e993084	0.29919827
4	0x3eb0599d	0.3444337
5	0x3dccb044	0.099945575
6	0xbe229a56	-0.15879187
7	0xbe02db43	-0.12778954
8	0x3e563840	0.20919895
9	0xbd5956ef	-0.053061422
10	0x3e6ab3fa	0.22920218
11	0x3e658c8f	0.224169
12	0xbd9a790b	-0.07542618
13	0x3db230b5	0.087006964
14	0xbe3fa523	-0.18715338
15	0x3e850292	0.25978523
16	0xbd76202d	-0.06008928
17	0xbe10bf6e	-0.14135525
18	0x3e5a3878	0.21310604
19	0xbdbc707f	-0.092011444
20	0x3d274155	0.04083379
21	0x3eee624e	0.46559376
22	0x3ef5c795	0.48003832
23	0x3e983a63	0.29732046
24	0x3e1f019f	0.15527962
25	0x3da3c89a	0.07997246
26	0xbe633b1d	-0.22190519
27	0xbe85b643	-0.26115617
28	0x3dd59a89	0.10429866
29	0xbe7ce434	-0.24696428
30	0xbc0f245a	-0.008736694
31	0x3d4016b8	0.046896666
32	0x3d4b9671	0.04970402
33	0x3e2eb97c	0.17062944
34	0xbd171a0b	-0.03689007
35	0x3e9043bb	0.28176674
36	0xbe828e5f	-0.25499246
37	0xbeb6494b	-0.35602793
38	0xbe8111c3	-0.25208864
39	0x3e28e58b	0.16493814
40	0x3e496e86	0.19671068
41	0x3ea0f3ac	0.31435907
42	0x3e30891b	0.17239802
43	0xbdd1bd5b	-0.10241195
44	0xbe27e1c6	-0.1639472
45	0xbea024a3	-0.31277952
46	0x3c7fccdf	0.01561281
47	0xbeab4705	-0.3345262
48	0x3e30ed17	0.17277943
49	0xbe26f353	-0.16303758
50	0xbba17bb3	-0.004928076
51	0x3edf7cfe	0.4365005
52	0x3f05b717	0.522325
53	0x3e34bc66	0.17649993
54	0xbe46865f	-0.19387196
55	0x3c93ce80	0.018042803
56	0xbe92794d	-0.2860817
57	0xbe7bcdbf	-0.24590205
58	0x3df2bb7e	0.118521675
59	0xbe6feed4	-0.2343095
60	0x3f090e10	0.5353708
61	0x3f10d046	0.565678
62	0x3ef9d40e	0.48794597
63	0xbb21cb63	-0.0024687878
64	0x3d2618b3	0.0405509
65	0x3d915f3d	0.070982434
66	0x393e7bb7	0.000181659
67	0xbe44169a	-0.19149247
68	0xbe38a4f5	-0.18031676
69	0x3e95b38a	0.2923854
70	0x3e8b9b5e	0.27266973
71	0xbdeab59a	-0.11460419
72	0x3e01a0e1	0.12659027
73	0x3dd1af02	0.10238458
74	0x3def010b	0.11670121
75	0x3ec0f3e2	0.37686068
76	0x3e61862c	0.22023839
77	0x3dea1e0c	0.11431512
78	0x3ba72270	0.005100541
79	0xbe8cda7c	-0.2751044
80	0xbcf368e5	-0.029713104
81	0xbe34c25f	-0.17652272
82	0x3d40fd53	0.04711659
83	0xbe369f3d	-0.17834182
84	0x3e5f5a9d	0.2181191
85	0x3e96a927	0.29425928
86	0x3ea30c0d	0.31845132
87	0x3deea9ef	0.11653506
88	0xbd23a45e	-0.039951675
89	0xbe6eb17b	-0.23309891
90	0xbe5498d0	-0.20761418
91	0xbd8cd37b	-0.06876274
92	0xbe29ee3a	-0.16594782
93	0x3ea38bfb	0.31942734
94	0x3ec51d88	0.38499093
95	0x3d11178d	0.03542285
96	0xbd67f02b	-0.056625526
97	0xbba6043b	-0.0050664223
98	0xbae4d064	-0.0017457125
99	0x3e3ca4d3	0.1842225
100	0x3d071186	0.032975696
101	0x3d768f6d	0.060195375
102	0x3dc2767c	0.09495255
103	0x3c96cf93	0.018409526
104	0x3e6d00c8	0.2314483
105	0xbed009ad	-0.40632382
106	0xbe5b7164	-0.21429974
107	0xbed6217a	-0.41822416
108	0x3de9f70d	0.11424074
109	0x3eec4671	0.46147493
110	0x3eb2fb3b	0.349573
111	0xbc9f4309	-0.019441145
112	0x3e10f745	0.14156826
113	0xbc9f94a6	-0.01948006
114	0x3d828962	0.0637386
115	0x3e479981	0.19492151
116	0x3e700ced	0.23442431
117	0x3e293eac	0.16527814
118	0x3f0061cf	0.50149244
119	0x3e7b34b3	0.24531822
120	0xbe77a803	-0.24185185
121	0xbd855336	-0.06510012
122	0xbda7e777	-0.08198445
123	0xbbef2e80	-0.0072992444
124	0x3f0ba4ca	0.54548323
125	0x3efed3e2	0.4977103
126	0x3f040f1c	0.51585555
127	0x3e9316d2	0.28728348
128	0x3cc49141	0.023995044
129	0xbe6394ad	-0.22224684
130	0xbeec23e9	-0.46121147
131	0xbecd6725	-0.40117756
132	0x3d04a697	0.032385435
133	0x3e3b4a0c	0.18289965
134	0x3e7a17ea	0.24423185
135	0xbeb1737e	-0.34658426
136	0x3bd8987a	0.0066099735
137	0xbead61b6	-0.3386361
138	0x3bcdeb81	0.006284178
139	0x3e0d7574	0.13814336
140	0x3d8b8614	0.06812683
141	0x3ea95f27	0.33080408
142	0x3f157cf0	0.58393764
143	0x3e9243f6	0.28567475
144	0x3e6a1b77	0.2286204
145	0x3e20ba6d	0.15696116
146	0xbe4c1f26	-0.19933757
147	0xbbadae40	-0.0053003132
148	0x3d28c9d7	0.041208114
149	0x3dea521c	0.11441442
150	0x3eb9922e	0.3624434
151	0x3eaceead	0.33775845
152	0xbe00aa7e	-0.12565038
153	0x3e55e5e6	0.2088848
154	0x3e2defaa	0.16985956
155	0x3e96fe10	0.2949071
156	0xbe4e85fa	-0.20168296
157	0xbe8e6b77	-0.27816364
158	0x3da9d75a	0.08293028
159	0x3e377de9	0.17919125
160	0x3ecbde0b	0.39817843
161	0xbe1674c2	-0.14692977
162	0xbbeda62e	-0.007252476
163	0xbda14d0b	-0.07876023
164	0x3e689624	0.22713524
165	0xbe6eb0e3	-0.23309664
166	0xbdcba8fb	-0.0994434
167	0xbd60f37e	-0.054919712
168	0x3eb815de	0.35954183
169	0x3ebe75b1	0.37199166
170	0x3e6fa052	0.23401001
171	0xbca6808a	-0.020324964
172	0xbe40d175	-0.18829902
173	0x3d282a77	0.041056123
174	0x3d24e069	0.040253077
175	0x3d08ede6	0.033430003
176	0xbc8ca0f2	-0.017166588
177	0xbd1af3b9	-0.03783009
178	0xbe688570	-0.22707152
179	0x3c46b291	0.0121275345
180	0xbe7312ca	-0.23737636
181	0xbe4b2e99	-0.19841994
182	0xbdd45f4d	-0.1036974
183	0xbe29620f	-0.16541313
184	0xbe8191d1	-0.25306562
185	0xbd02506a	-0.03181497
186	0x3ee28daa	0.44248706
187	0x3f05d1cd	0.52273256
188	0x3eb2fb8b	0.34957537
189	0x3ebdb04e	0.37048572
190	0xbcf526cf	-0.029925732
191	0xbe964874	-0.29352152
192	0xbf0cc462	-0.54987156
193	0xbe9403ff	-0.289093
194	0xbe4992b7	-0.19684874
195	0x3e5f9797	0.2183517
196	0x3d82673b	0.06367346
197	0x3dfadaca	0.12248762
198	0x3f009474	0.5022652
199	0x3dfbf91e	0.12303375
200	0x3e7b686a	0.2455155
201	0xbd8a1e6c	-0.06744084
202	0xbdc22820	-0.094803095
203	0x3d9306a8	0.07179004
204	0x3f1fba57	0.6239371
205	0xbd88a2fc	-0.06671712
206	0x3e44989b	0.1919884
207	0x3e337c23	0.17527823
208	0x3e8340fa	0.2563551
209	0x3d4a1295	0.049334127
210	0xbd9dfa46	-0.077137515
211	0x3e000a25	0.1250387
212	0x3e7015f6	0.23445877
213	0x3d03a4b4	0.032139495
214	0xbe324ec3	-0.17412858
215	0xbe9ae853	-0.30255374
216	0xbf25441a	-0.6455704
217	0xbeb95c13	-0.3620306
218	0xbe3b99df	-0.18320416
219	0xbde87954	-0.113512665
220	0xbca0f1ad	-0.01964649
221	0xbe8f6c54	-0.28012335
222	0x3ed1ec40	0.41000557
223	0x3e9bcf8c	0.30431783
224	0x3db2f31a	0.08737774
225	0xbdb3d2d0	-0.08780444
226	0xbee7a04b	-0.4523948
227	0xbee18bec	-0.44052064
228	0xbd7b76d4	-0.06139262
229	0x3cacabf3	0.021078086
230	0xbdd57d74	-0.10424319
231	0x3ec44103	0.3833085
232	0x3e6d19a9	0.2315432
233	0x3e66eaf3	0.22550564
234	0xbe83e416	-0.25759953
235	0x3d83266c	0.06403813
236	0xbdbba60f	-0.091625325
237	0xbdb58859	-0.08863897
238	0x3e82a606	0.2551729
239	0x3ea519b1	0.32246163
240	0x3f025500	0.5091095
241	0x3e83d7dd	0.25750628
242	0x3e93668c	0.28789175
243	0x3d5b8cec	0.05360119
244	0x3e7c4c17	0.24638401
245	0x3edb8d14	0.42881072
246	0xbe658761	-0.22414924
247	0xbb7b98e4	-0.003839069
248	0x3e2d3093	0.16913061
249	0x3e849fe2	0.2590323
250	0x3e5c3339	0.21503915
251	0xbd90d8e0	-0.070726156
252	0xbe07582d	-0.1321723
253	0x3e4afd4c	0.19823188
254	0x3e987169	0.29774025
255	0x3d9dfd6d	0.07714353

bias f4 [20]
0	0x3e4cd758	0.20004022
1	0x3e27e593	0.1639617
2	0x3e29fb24	0.16599709
3	0x3d986249	0.074406214
4	0x3dd2f391	0.10300363
5	0x3e0f38bd	0.13986488
6	0x3ba84225	0.005134838
7	0xbe8bc62e	-0.27299637
8	0x3c7ae695	0.015313764
9	0x3d40d1bb	0.047075015
10	0x3d0c24c5	0.034214754
11	0xbdc6d441	-0.09708453
12	0x3e2a8eaa	0.16655985
13	0xbcc361e7	-0.023850394
14	0x3d90189c	0.07035944
15	0x3e44fdfd	0.19237514
16	0x3d9e65f6	0.07734291
17	0x00000000	0.0
18	0x3c563c7b	0.013075943
19	0xbe8f4ecd	-0.27989808

weight f4 [7, 380]
0	0xbd99a9b1	-0.07503069
1	0x3c60e7ce	0.013727142
2	0x3b213b36	0.0024601943
3	0x3b823cf7	0.0039745527
4	0xba5b20c5	-0.000835907
5	0xbc392e88	-0.011302598
6	0xbcb337b2	-0.021877144
7	0x3bcf4187	0.00632495
8	0x3d073d16	0.03301724
9	0x3dd1039b	0.10205766
10	0x3e03c6db	0.12868826
11	0x3e2cf275	0.16889365
12	0x3e3a593f	0.18198107
13	0x3e301213	0.17194395
14	0x3e4ad9cf	0.1980965
15	0x3e5d0842	0.21585181
16	0x3e42ffdd	0.19042917
17	0x3e43d22a	0.1912314
18	0x3e1e2056	0.15442023
19	0x3cc81efc	0.024428837
20	0xbe9a49ab	-0.3013433
21	0xbe362b91	-0.17790057
22	0xbd2d4198	-0.042298883
23	0xbc50837b	-0.01272666
24	0x3d37fcfd	0.044919003
25	0xbc5ac621	-0.013352902
26	0xbccfa152	-0.025345478
27	0xbdbc5eba	-0.09197755
28	0xbdcc387f	-0.09971713
29	0xbd859537	-0.06522601
30	0xbdd76518	-0.10517329
31	0xbd582084	-0.052765384
32	0xbc8dc299	-0.017304705
33	0x3b206c11	0.0024478475
34	0x3bbe7eb7	0.0058134454
35	0xbb0e1290	-0.0021678545
36	0x3ab26e98	0.0013613282
37	0x3b4f09a5	0.0031591442
38	0xbe9a4809	-0.30133083
39	0xbdb5af08	-0.08871275
40	0xbd8b946d	-0.06815419
41	0xbdf4656d	-0.11933408
42	0xbe00a419	-0.12562598
43	0xbde80594	-0.11329189
44	0xbe02ec49	-0.12785448
45	0xbd80d6ae	-0.06290947
46	0xbd2fccf1	-0.042920057
47	0xbd843c29	-0.06456787
48	0xbd38fa92	-0.045160837
49	0xbc8d7540	-0.017267823
50	0x3ca8adb4	0.02059064
51	0x3ab83246	0.0014053069
52	0x3c6e02ec	0.014527064
53	0x3d22499d	0.039620984
54	0x3d24355e	0.040089957
55	0x3d88e49f	0.06684231
56	0x3d5e833f	0.054324385
57	0x3da66b84	0.08125976
58	0xbe6d525c	-0.23175949
59	0xbe9197d8	-0.2843616
60	0xbe7f4992	-0.24930409
61	0xbe62b667	-0.22139893
62	0xbdf6948f	-0.12040054
63	0xbe04ecea	-0.12981
64	0xbdf7a780	-0.12092495
65	0xbe02bbbd	-0.12766929
66	0xbdd5cf26	-0.10439901
67	0xbd55a8a5	-0.052162785
68	0xbd240fbf	-0.04005408
69	0xbd1acbd3	-0.03779204
70	0xbd180a3f	-0.037119146
71	0xbcf51bed	-0.029920543
72	0xbd2bea9e	-0.041971795
73	0xbd1b1441	-0.037861113
74	0xbd8323f0	-0.06403339
75	0xbd876835	-0.06611673
76	0x3ec69775	0.38787428
77	0x3e436142	0.1908007
78	0xbe1c8e12	-0.1528857
79	0xbe96a861	-0.29425338
80	0xbe9c576e	-0.30535454
81	0xbe0fb070	-0.1403215
82	0xbda52e66	-0.080654904
83	0xbd1b5c5e	-0.037929885
84	0xbcea236d	-0.028581345
85	0xbc3c57dc	-0.011495557
86	0xbbad724a	-0.0052931653
87	0xbc580f43	-0.013187232
88	0xbcaf42fa	-0.021394242
89	0xbc848904	-0.016178615
90	0xbcb1f83b	-0.02172481
91	0xbcc2cf9d	-0.023780638
92	0xbcf91d56	-0.030409496
93	0xbd44b068	-0.048019797
94	0xbda4e9c5	-0.080524005
95	0xbc3183a2	-0.010834606
96	0xbeaebabb	-0.3412684
97	0xbe5149ea	-0.20438352
98	0xbe0e03bd	-0.13868614
99	0xbdd25b91	-0.10271371
100	0xbd161856	-0.036644302
101	0xbd9fcf6f	-0.07803237
102	0xbdefeb5d	-0.11714814
103	0xbdf3df30	-0.11907804
104	0xbd9a7cfb	-0.075433694
105	0xbd5ec19f	-0.05438387
106	0xbce2feb2	-0.027709339
107	0xbc6ac0d9	-0.014328205
108	0xbc276b43	-0.010218444
109	0xbc428daf	-0.0118746
110	0x3a7b944d	0.00095969887
111	0xbad58790	-0.0016291011
112	0xbcb82dee	-0.022482838
113	0x3b7d8291	0.003868256
114	0xbe37b975	-0.1794184
115	0x3d23c72d	0.03998487
116	0x3cb969be	0.02263343
117	0xbcb30f77	-0.02185796
118	0xbced5d06	-0.028975021
119	0xbd28420f	-0.041078623
120	0xbbde81f9	-0.0067903963
121	0xbb80f637	-0.003935601
122	0xbc213870	-0.009840116
123	0x3cb9e03d	0.022689933
124	0xbc001a76	-0.007818809
125	0xbcb21c90	-0.021742135
126	0x3b8573ea	0.004072656
127	0xbc12a9cd	-0.0089516165
128	0x3c03cbf2	0.00804423
129	0xbc524631	-0.012834118
130	0x3bfa4067	0.007637072
131	0xbba7288d	-0.0051012696
132	0x3970c780	0.00022962503
133	0x3d3d01bf	0.046144243
134	0x3e68fd90	0.22752976
135	0x3e5f8d7b	0.21831314
136	0x3de07930	0.10960615
137	0x3da13f02	0.07873346
138	0x3ddeb803	0.10874941
139	0x3d97275d	0.07380555
140	0x3d0cbae8	0.034357935
141	0xbd121a3a	-0.035669543
142	0xbcb3cdad	-0.02194866
143	0xbce48084	-0.027893312
144	0xbd1bf2d5	-0.03807338
145	0xbcb0b691	-0.02157143
146	0xbcdb4317	-0.02676539
147	0xbc9f842d	-0.019472206
148	0xbca01de4	-0.019545503
149	0xbca1a289	-0.019730823
150	0xbd0d4e51	-0.034498516
151	0xbb57f208	-0.0032950658
152	0x3837be8a	4.3808053e-05
153	0x392e83e7	0.0001664307
154	0x3bcf3696	0.006323646
155	0xbc9ce9a1	-0.019154372
156	0xbc985740	-0.018596292
157	0xbd2435c5	-0.04009034
158	0xbb69c040	-0.0035667568
159	0xbc9d9adb	-0.01923888
160	0xbcccdf29	-0.025008755
161	0xbd019604	-0.031637207
162	0xbd31b57a	-0.04338596
163	0xbc8adbc7	-0.016950501
164	0xbc66408b	-0.014053474
165	0xbb81853a	-0.0039526494
166	0x3b5cdfa2	0.0033702631
167	0xbc0bd79b	-0.008535291
168	0xbc43f0d4	-0.011959273
169	0x3a228994	0.00062003103
170	0x3c362e89	0.011119493
171	0xbd3f1af0	-0.04665655
172	0x3c44b033	0.0120049
173	0x3ccf5868	0.02531071
174	0x3bd3ee91	0.0064676483
175	0x3b26111f	0.0025339795
176	0x3c0330bf	0.008007227
177	0x3c1e1667	0.009648896
178	0x3c88d83a	0.016704667
179	0x3b12b965	0.0022388336
180	0x3c83b1a0	0.01607591
181	0x3b04ebe9	0.0020282215
182	0x3aa58dcb	0.0012630759
183	0x3c8db89a	0.017299939
184	0x39052e37	0.00012701085
185	0xbbd7cace	-0.0065854555
186	0xbc45b6c6	-0.012067502
187	0x3c6ff81e	0.014646558
188	0x3b96c5b0	0.004601203
189	0x3cba51f4	0.022744156
190	0xbc3575e9	-0.011075475
191	0x3d47649c	0.048679933
192	0x3d8be617	0.068309955
193	0x3d8690df	0.06570601
194	0x3d8e9e5d	0.06963799
195	0x3dcab01d	0.09896872
196	0x3db1bc01	0.08678437
197	0x3d9b17e9	0.0757292
198	0x3d4d8cc3	0.05018307
199	0x3cfbae36	0.030722719
200	0xb89b60f5	-7.4090356e-05
201	0xbccb1ced	-0.024794066
202	0xbcc95eaf	-0.024581281
203	0x3c6928c3	0.01423091
204	0xbb437536	-0.0029824502
205	0xbc1e0255	-0.009644111
206	0xbc7c149a	-0.015385771
207	0x3c26d8da	0.010183537
208	0xbc32f4e6	-0.010922646
209	0x3de33cc6	0.11095576
210	0x3dd959d7	0.10612839
211	0x3e2f4790	0.17117143
212	0x3e57aeaa	0.21062723
213	0x3e324b3f	0.17411517
214	0x3e12c853	0.1433423
215	0x3d76e4cb	0.060276788
216	0x3bfe8e8f	0.007768459
217	0xbd6329df	-0.055459853
218	0xbdc1953c	-0.09452292
219	0xbdcbd5a6	-0.099528596
220	0xbddb4436	-0.107063696
221	0xbe1c66db	-0.15273611
222	0xbe12c714	-0.14333755
223	0xbe104b3f	-0.14091204
224	0xbdc5f16f	-0.096651904
225	0xbd9c31c6	-0.07626681
226	0xbd384c5b	-0.044994693
227	0xbd43a716	-0.047766767
228	0xbee2fb47	-0.44332334
229	0xbf0c4395	-0.5479062
230	0xbedd55e2	-0.43229586
231	0xbe4cdec5	-0.20006855
232	0xbe0347ba	-0.1282033
233	0xbde39cda	-0.111139014
234	0xbe05b86d	-0.13058634
235	0xbdd0ddb2	-0.10198535
236	0xbe227e26	-0.15868434
237	0xbdc00545	-0.09376005
238	0xbb6f6da0	-0.0036533847
239	0x3d4b8582	0.04968787
240	0x3daaad89	0.083338805
241	0x3d0ce0cf	0.03439408
242	0x3c836b7b	0.016042462
243	0xbae28039	-0.0017280645
244	0xbb5e5d20	-0.0033930019
245	0xbae0b66e	-0.0017144212
246	0xbd47c25d	-0.048769344
247	0xbecc04ae	-0.3984732
248	0x3e8464b3	0.25858077
249	0x3ebf9097	0.37415
250	0x3e949343	0.29018602
251	0x3dfd5edb	0.12371608
252	0x3ca60472	0.020265792
253	0xbd627cc7	-0.05529478
254	0xbd9c8b33	-0.07643738
255	0xbd3ca0a2	-0.04605163

bias f4 [7]
0	0xb99bd40b	-0.00029721888
1	0xbd6d97bf	-0.058006044
2	0xbc2aac87	-0.01041711
3	0x3dbdb37c	0.092627496
4	0x3e02c7bc	0.12771505
5	0xbe05bece	-0.13061067
6	0xbc29b350	-0.010357693
