e-nose-cnn/net/net1_86.pkl (torch_old, 12145 bytes, 6 tensors)

conv1.weight f4 [6, 10, 1, 4]
-0.37605602 0.10006687 -0.41861048 -0.18388146 -0.25325614 -0.40175012 -0.43100217 -0.5048359
-0.26324555 -0.3185162 0.10129464 -0.037256673 -0.4070403 -0.12673807 -0.39118782 -0.43348873
0.02829354 0.05440147 -0.2606137 -0.4130936 0.1455974 0.08183828 0.05351205 -0.26847354
-0.2558337 -0.110255145 0.2507645 0.16951773 0.078347385 0.11539665 0.014421283 -0.03853686
0.49756685 0.23572817 0.40055257 0.44268638 0.22695833 -0.025930865 -0.14551397 -0.08028709
-0.4097036 -0.297535 -0.12394459 -0.0020385468 -0.11636848 -0.28302 0.07701771 -0.11158648
0.14730139 -0.40377116 -0.22594813 -0.30016324 -0.06638884 -0.29389438 -0.2580049 -0.031180425
-0.27153236 0.0019480899 -0.097574696 -0.16890082 -0.21868393 -0.122624844 0.16538721 0.10518413
-0.35631746 0.10894931 0.12596601 -0.15773644 0.251815 -0.22467378 0.22616577 -0.10334127
0.17771636 0.514339 0.25232747 0.46267223 -0.005999398 0.13425468 -0.058490667 0.19596748
0.3278262 0.086093284 -0.1482951 0.22284456 0.13502108 0.2891629 -0.23629983 -0.0061957766
0.028226666 0.2710444 0.2894541 0.2369853 0.5029084 0.46817002 0.33308497 0.55528986
-0.1900565 -0.24840087 0.08428704 0.19685885 -0.011280471 -0.0074115647 -0.31218493 -0.23479292
-0.35019478 -0.020436605 -0.14976642 -0.37318215 -0.109390415 -0.13011964 0.12979841 -0.3305472
0.054989085 -0.15921502 0.16094697 -0.17621246 0.4104715 0.56990623 0.1814866 0.044626433
0.052574683 -0.26869008 0.07152405 -0.076537244 0.5235179 0.3907919 0.1531066 0.42707005
0.35515198 0.22561653 -0.17755917 0.07117454 0.22573866 0.03480372 0.4381747 -0.007942255
-0.34373483 -0.4817367 -0.033895876 -0.1791044 -0.68449855 -0.55231744 -0.3989696 -0.5755943
0.09118876 -0.26636976 -0.38437897 -0.36060998 -0.06335604 -0.12915242 0.340121 -0.13265228
-0.13101453 -0.18981299 -0.07861494 -0.18691921 0.46550807 0.39493856 0.26162267 -0.19080737
0.29065108 0.18095063 -0.039977506 -0.21376596 -0.20994486 -0.34511676 -0.2970339 -0.15983538
0.38174388 0.32307374 0.3387014 -0.07200017 -0.0490319 -0.20933461 0.006621853 -0.23925893
-0.06659852 -0.13947202 0.020189367 0.25715598 0.29428822 0.049567822 0.14421119 0.17439573
-0.0092126755 0.33583173 0.13009422 0.26836714 -0.09768047 -0.28580707 0.1630052 0.08379201
-0.014565069 -0.15038222 0.25208336 0.058857456 -0.24808425 0.3460904 0.25802672 0.39779228
0.09969704 0.2156904 0.051031496 -0.2751848 -0.4123139 0.06684128 -0.12290558 0.0035563374
-0.08093227 -0.3129862 -0.17187229 0.106121026 -0.0560015 -0.14091712 -0.060800415 0.03784117
0.31588537 0.0498118 -0.18973428 -0.27761266 0.036386527 0.29425678 0.41373226 0.362103
-0.16215098 0.20103097 0.1530564 -0.26681978 0.22357324 -0.18504319 0.30250683 0.24022642
-0.13946101 -0.061602365 0.03809466 -0.38312665 0.519938 0.6170989 0.32613194 0.4577172
00000000: 6a8a c0be dcef cc3d 1d54 d6be 6c4b 3cbe
00000010: caaa 81be 31b2 cdbe 51ac dcbe ed3c 01bf
00000020: 1fc8 86be 8e14 a3be 9073 cf3d 749a 18bd
00000030: 9667 d0be a0c7 01be c549 c8be 3cf2 ddbe
00000040: dbc7 e73c 13d4 5e3d 296f 85be 0181 d3be
00000050: 7c17 153e d49a a73d 742f 5b3d 5d75 89be
00000060: a2fc 82be 73cd e1bd 3464 803e 0e96 2d3e
00000070: 9874 a03d 1455 ec3d 3f47 6c3c d4d8 1dbd
00000080: 15c1 fe3e ba62 713e 3a15 cd3e caa7 e23e
00000090: c467 683e f76c d4bc 9d01 15be 8f6d a4bd
000000a0: acc4 d1be 8256 98be a9d6 fdbd 2499 05bb
000000b0: 9952 eebd ffe7 90be 76bb 9d3d 7487 e4bd
000000c0: 2dd6 163e 18bb cebe f25e 67be ffae 99be
000000d0: dff6 87bd 5379 96be 3819 84be 176e ffbc
000000e0: 4a06 8bbe 0d57 ff3a 3ed5 c7bd 56f4 2cbe
000000f0: aeee 5fbe bc22 fbbd 445b 293e c76a d73d
00000100: 3e6f b6be d120 df3d 3cfd 003e a985 21be
00000110: e5ed 803e e210 66be 0098 673e 96a4 d3bd
00000120: 47fb 353e b9ab 033f 1131 813e 60e3 ec3e
00000130: 9996 c4bb 0f7a 093e e993 6fbd b3ab 483e
00000140: d6d8 a73e ad51 b03d acda 17be 5d31 643e
00000150: f742 0a3e 290d 943e 95f8 71be f105 cbbb
00000160: 9c3b e73c 55c6 8a3e 5433 943e 46ac 723e
00000170: 9bbe 003f fbb3 ef3e 1d8a aa3e 7a27 0e3f
00000180: 2c9e 42be cc5c 7ebe af9e ac3d 5e95 493e
00000190: bad1 38bc b6dc f2bb b4d6 9fbe 8e6d 70be
000001a0: bb4c b3be ab6a a7bc 5e5c 19be bb11 bfbe
000001b0: 1508 e0bd 153e 05be e0e9 043e 7c3d a9be
000001c0: 3c3c 613d 4309 23be 48cf 243e 0a71 34be
000001d0: 5229 d23e 60e5 113f a0d7 393e 35ca 363d
000001e0: 8d58 573d bf91 89be 337b 923d 8fbf 9cbd
000001f0: 4505 063f e015 c83e fac7 1c3e eda8 da3e
00000200: 7bd6 b53e 0508 673e 12d2 35be f5c3 913d
00000210: 0928 673e 588e 0e3d 6f58 e03e 3b20 02bc
00000220: 03fe afbe 31a6 f6be 67d6 0abd 2567 37be
00000230: 4c3b 2fbf ad64 0dbf be45 ccbe 265a 13bf
00000240: 2cc1 ba3d 9e61 88be 52cd c4be dfa1 b8be
00000250: d0c0 81bd 8840 04be 5724 ae3e 00d6 07be
00000260: ac28 06be 565e 42be df00 a1bd c067 3fbe
00000270: 1357 ee3e 6335 ca3e 68f3 853e 0263 43be
00000280: 38d0 943e 1f4b 393e 74bf 23bd 77e5 5abe
00000290: c9fb 56be 25b3 b0be d414 98be e3ab 23be
000002a0: ef73 c33e ec69 a53e 456a ad3e d374 93bd
000002b0: acd5 48bd d05b 56be 21fc d83b 4b00 75be
000002c0: ce64 88bd c1d1 0ebe 2c64 a53c f3a9 833e
000002d0: f2ac 963e a107 4b3d 19ac 133e cb94 323e
000002e0: c3f0 16bc 23f2 ab3e 6b37 053e 6b67 893e
000002f0: b30c c8bd 4e55 92be d6ea 263e 259b ab3d
00000300: 54a2 6ebc ccfd 19be 1211 813e 8414 713d
00000310: cc09 7ebe c332 b13e 141c 843e 6eab cb3e
00000320: f62d cc3d f2dd 5c3e 6706 513d 06e5 8cbe
00000330: cf1a d3be 15e4 883d ecb5 fbbd 7111 693b
00000340: d1bf a5bd ba3f a0be 4aff 2fbe fb55 d93d
00000350: d461 65bd 944c 10be db09 79bd 58ff 1a3d
00000360: babb a13e 7507 4c3d b449 42be 3f23 8ebe
00000370: 0a0a 153d d3a8 963e b7d4 d33e 9065 b93e
00000380: e80a 26be 10db 4d3e d1ba 1c3e 9a9c 88be
00000390: 62f0 643e f67b 3dbe 2de2 9a3e eafd 753e
000003a0: dece 0ebe c352 7cbd 2509 1c3d 2d29 c4be
000003b0: a81a 053f 32fa 1d3f c4fa a63e e959 ea3e

conv1.bias f4 [6]
-0.15134133 0.05913309 0.12337297 0.024100384 0.3073213 0.08447614
00000000: 39f9 1abe 8a35 723d f8aa fc3d 2b6e c53c
00000010: 3859 9d3e d401 ad3d

conv2.weight f4 [10, 6, 1, 3]
0.5541823 0.2778526 0.71447724 0.30935213 0.6137163 0.7146924 0.5674066 0.616095
0.3854655 0.5846906 0.5378292 -0.095145464 0.1981971 -0.39506105 0.28886724 0.34547693
-0.0669529 0.37659714 -0.59987974 -0.40728003 -0.109878846 0.17958467 -0.41084325 -0.043084044
0.20724209 0.22564927 0.2694402 -0.38182923 -0.34602785 -0.3440961 0.3749022 0.39309472
0.40891314 0.22417118 -0.20426784 0.33733702 0.42779514 0.20625158 0.040372286 -0.11755623
-0.20555358 0.29073924 -0.47724435 -0.016402788 -0.36836675 0.16462539 -0.024233684 0.41108742
0.3541843 0.041938253 0.35318053 -0.2703087 0.21259932 -0.27130207 0.20101102 -0.15270594
0.11343626 0.13402282 0.008691368 -0.046966042 -0.23041904 0.35203925 -0.26163095 -0.25935864
-0.1260833 -0.20398422 -0.23261313 -0.30306703 -0.14334606 0.13888648 0.52400684 0.46899363
0.22937626 0.10522084 -0.23377594 0.14886826 -0.22088386 -0.053662643 0.21487576 -0.06691675
0.0036501118 -0.05265422 0.1676177 -0.10342543 -0.23508449 -0.17990178 -0.2871825 -0.19099893
0.17114204 -0.33104894 0.3510235 0.08500031 0.37979102 0.41528302 -0.017279753 -0.15753034
-0.21156608 0.21130313 0.21926785 0.44854125 0.23518316 0.49925753 0.25505263 -0.03503656
-0.19308299 -0.29648244 -0.44638547 -0.3076752 0.09859339 0.34535688 -0.2652212 -0.024490604
0.38080496 -0.24660297 0.22635005 0.41200888 0.4253862 0.27092347 0.0064664898 -0.17464584
0.115377896 0.1854461 -0.17323206 -0.42640626 -0.44417375 -0.037795864 0.16349353 -0.16191654
-0.039966535 0.050525226 -0.058586717 0.18625857 0.02287688 0.32534063 0.21970308 0.32315463
0.04378031 0.44837373 0.013420002 -0.29852104 -0.31615576 0.043412026 -0.34072542 0.081578806
0.4068711 0.32071206 -0.09214321 0.07170094 0.26478845 -0.031350628 0.33545852 0.3732423
-0.089396425 0.48833367 0.09972581 0.4742492 -0.1664069 0.066957586 -0.2021714 -0.10444529
-0.22058 -0.507502 -0.061052516 0.02219909 -0.118303925 -0.27672628 0.30152315 -0.30710685
0.1399166 -0.08597989 -0.12802611 -0.09543202 -0.31014907 -0.3525575 -0.23718125 0.052445628
0.119798005 0.33205935 -0.22078441 -0.020430444
00000000: e4de 0d3f b242 8e3e fbe7 363f 6763 9e3e
00000010: 831c 1d3f 15f6 363f 8f41 113f 67b8 1d3f
00000020: bc5b c53e 48ae 153f 2daf 093f a0db c2bd
00000030: 2ef4 4a3e 7145 cabe 68e6 933e 5ae2 b03e
00000040: 9a1e 89bd 57d1 c03e b891 19bf 0287 d0be
00000050: 2908 e1bd 0be5 373e 0c5a d2be e578 30bd
00000060: 4537 543e 9a10 673e 11f4 893e 1f7f c3be
00000070: 902a b1be 5d2d b0be 2ef3 bf3e b643 c93e
00000080: 105d d13e 218d 653e 972b 51be 70b7 ac3e
00000090: f707 db3e 9d33 533e 695d 253d 52c1 f0bd
000000a0: a37c 52be c6db 943e 5f59 f4be 245f 86bc
000000b0: 919a bcbe 8f93 283e b885 c6bc 0d7a d23e
000000c0: a557 b53e 72c7 2b3d 14d4 b43e e765 8abe
000000d0: a3b3 593e 1be8 8abe d5d5 4d3e f25e 1cbe
000000e0: 4551 e83d 473d 093e 3d66 0e3c 775f 40bd
000000f0: f8f2 6bbe 7d3e b43e 7ef4 85be a8ca 84be
00000100: fb1b 01be 3de1 50be 2332 6ebe 9a2b 9bbe
00000110: 4fc9 12be 4238 0e3e 5025 063f ef1f f03e
00000120: 9ce1 6a3e 067e d73d f662 6fbe ec70 183e
00000130: 612f 62be 5ccd 5bbd 6408 5c3e a60b 89bd
00000140: b736 6f3b f4ab 57bd f9a3 2b3e b6d0 d3bd
00000150: fdb9 70be 2c38 38be 9609 93be 3995 43be
00000160: dc3f 2f3e 3f7f a9be 5ab9 b33e a414 ae3d
00000170: f873 c23e fa9f d43e 458e 8dbc a24f 21be
00000180: c7a4 58be d95f 583e c087 603e 33a7 e53e
00000190: dbd3 703e af9e ff3e 4296 823e 7f82 0fbd
000001a0: 8cb7 45be 8ccc 97be a38c e4be 9b87 9dbe
000001b0: 55eb c93d 9ed2 b03e 13cb 87be 85a0 c8bc
000001c0: def8 c23e 7d85 7cbe 4fc8 673e d4f2 d23e
000001d0: 38cc d93e 7bb6 8a3e d9e4 d33b 5cd6 32be
000001e0: 3f4b ec3d 95e5 3d3e bf63 31be ec51 dabe
000001f0: be6a e3be d6cf 1abd d96a 273e 73cd 25be
00000200: f3b3 23bd 8af3 4e3d a0f8 6fbd 91ba 3e3e
00000210: 4b68 bb3c 0c93 a63e d8f9 603e 8674 a53e
00000220: fb52 333d 3e91 e53e 91df 5b3c c0d7 98be
00000230: 2bdf a1be cfd0 313d 9073 aebe ca12 a73d
00000240: 6951 d03e 5f34 a43e 94b5 bcbd f1d7 923d
00000250: 5a92 873e 8469 00bd 38c1 ab3e 9d19 bf3e
00000260: 7915 b7bd df06 fa3e 0c3d cc3d cbd0 f23e
00000270: 9266 2abe 0f21 893d 0506 4fbe 6ae7 d5bd
00000280: b9df 61be a7eb 01bf 3412 7abd deda b53c
00000290: 5449 f2bd 11af 8dbe 3e61 9a3e 1c3d 9dbe
000002a0: 4c46 0f3e 3916 b0bd 4719 03be dd71 c3bd
000002b0: dccb 9ebe 6b82 b4be a4df 72be 3ad1 563d
000002c0: a858 f53d af03 aa3e 4f15 62be bf5d a7bc

conv2.bias f4 [10]
-0.37620783 0.54746735 0.008450302 0.24725972 0.0004317322 0.040693156 0.031866472 0.12526686
0.08158376 -0.0016724977
00000000: 509e c0be d226 0c3f 2373 0a3c a731 7d3e
00000010: 1d5a e239 dead 263d 6b86 023d f545 003e
00000020: 6315 a73d b637 dbba

fc1.weight f4 [4, 580]
-0.4919164 0.04766799 0.107526764 0.09347212 0.069777764 0.08717692 0.07713798 0.059307475
0.05362422 0.07780106 0.056853812 0.038507722 0.04106015 0.01906721 0.030654885 -0.006963725
-0.019483574 -0.021511942 -0.03321763 -0.053871553 -0.089249454 -0.08541862 -0.061430816 -0.05429165
-0.08498945 -0.09273675 -0.09736989 -0.09014781 -0.06551994 -0.032572336 -0.020220844 0.00045322304
0.034658164 0.016397137 0.012550124 0.06458307 0.077376224 0.078603685 0.080296926 0.06321752
0.100388475 0.092443384 0.080802135 0.12536849 0.14325504 0.11537832 0.13424554 0.12148246
0.14329034 0.12568273 0.13694581 0.14041343 0.12719582 0.14242153 0.14720194 0.11322627
0.14558908 0.16482632 -0.09727952 -0.09495398 -0.056309603 -0.035096183 -0.029933752 -0.027292006
-0.037838954 -0.049004793 -0.055143654 -0.056255475 -0.055451926 -0.05570851 -0.05565076 -0.0617736
-0.06188235 -0.055683713 -0.0683081 -0.075866975 -0.06200887 -0.08574822 -0.071037695 -0.07764186
-0.060827713 -0.07040973 -0.06656516 -0.06735038 -0.057272423 -0.06883694 -0.05603423 -0.0660181
-0.07960711 -0.08539338 -0.082055464 -0.110392675 -0.09391133 -0.1157514 -0.10478892 -0.1147976
-0.107204914 -0.1092731 -0.12686606 -0.11593863 -0.094866775 -0.106032275 -0.12528352 -0.104490325
-0.110847436 -0.109510355 -0.099837005 -0.093244724 -0.10483775 -0.11502859 -0.09753175 -0.10271322
-0.09634083 -0.10591303 -0.11294164 -0.097408384 -0.06963614 -0.15785576 -0.13480963 -0.080837235
-0.066672914 -0.05569434 -0.04887821 -0.036573086 -0.03119354 -0.027823139 -0.035043508 -0.013721838
-0.022466267 -0.017500486 -0.005785394 -0.008056106 0.007716672 -0.008308078 -0.0047965758 -0.010330509
-0.017716033 0.012004081 -0.014990637 -0.011986309 -0.0030900384 -0.0005527403 -0.013994881 -0.0041845627
-0.014501409 -0.011366055 -0.0037847438 0.017531063 0.039853923 0.014302485 0.019391896 0.027632719
0.042890973 0.034727596 0.060691305 0.05719898 0.05621566 0.07205054 0.0791548 0.05919253
0.08007838 0.07648661 0.071398064 0.09758441 0.07657071 0.08566683 0.08114522 0.08813035
0.08924419 0.07518387 0.09695703 0.08235481 0.0967242 0.11110495 -0.014195249 -0.0017010226
-0.019434163 -0.005802781 -0.03427198 -0.020638105 -0.04032074 -0.040415943 -0.055458114 -0.051151846
-0.040486876 -0.051295463 -0.049249776 -0.029652555 -0.050148915 -0.05874442 -0.049290914 -0.06265043
-0.04906096 -0.03153505 -0.041303623 -0.04175535 -0.010104108 0.0021747355 -0.0026715964 0.034435287
0.037521664 0.03346878 0.045452606 0.043132275 0.033796664 0.06062854 0.026349166 0.050890666
0.04159042 0.037018675 -1.1925839e-05 0.023245545 0.012889833 0.0050703916 -0.0010520075 -0.0045067146
-0.009170349 0.005121917 -0.023014288 -0.013045643 0.0014623854 -0.046184245 -0.022561692 -0.011751415
-0.02004694 -0.030321328 -0.031411804 -0.02940276 -0.02618727 -0.034749236 -0.0382095 -0.011612111
-0.0045258156 1.43994e-05 0.0014218116 -0.00068381074 0.008426402 0.010361683 0.00060196006 0.019628504
-0.001163279 -0.0066224257 -0.013938214 0.009033052 -0.0061753923 0.0037126108 -0.01881248 0.007741838
-0.009635787 -0.012739824 -0.012031422 0.008207704 -0.00076233747 -0.008371862 0.002192961 0.0055225394
00000000: 77dc fbbe 833f 433d fe36 dc3d 506e bf3d
00000010: a5e7 8e3d d089 b23d 84fa 9d3d 65ec 723d
00000020: 12a5 5b3d 2a56 9f3d 8bdf 683d 46ba 1d3d
00000030: b02e 283d d632 9c3c f41f fb3c f62f e4bb
00000040: 049c 9fbc d039 b0bc 360f 08bd 6ba8 5cbd
00000050: 6bc8 b6bd f5ef aebd e19e 7bbd ec60 5ebd
00000060: f30e aebd c4ec bdbd dd69 c7bd 6a9f b8bd
00000070: 512f 86bd 926a 05bd 2fa6 a5bc 919e ed39
00000080: b8f5 0d3d 4a53 863c 099f 4d3c 2144 843d
00000090: 6d77 9e3d f8fa a03d b772 a43d 3078 813d
000000a0: 7998 cd3d f552 bd3d 977b a53d 9960 003e
000000b0: 73b1 123e 784b ec3d aa77 093e cccb f83d
000000c0: b4ba 123e f9b2 003e 863b 0c3e 8ac8 0f3e
000000d0: 9f3f 023e f3d6 113e 1bbc 163e 2de3 e73d
000000e0: 4e15 153e 3bc8 283e 7c3a c7bd 3b77 c2bd
000000f0: e6a4 66bd 04c1 0fbd a137 f5bc 7c93 dfbc
00000100: 05fd 1abd 40b9 48bd 50de 61bd 246c 66bd
00000110: 8f21 63bd 9b2e 64bd 0df2 63bd 5006 7dbd
00000120: 5978 7dbd 9b14 64bd 1ee5 8bbd 2560 9bbd
00000130: 03fd 7dbd c39c afbd 367c 91bd b202 9fbd
00000140: 7b26 79bd fa32 90bd 5153 88bd ffee 89bd
00000150: 7d96 6abd 62fa 8cbd 2684 65bd 7f34 87bd
00000160: 0d09 a3bd b9e2 aebd b20c a8bd 8e15 e2bd
00000170: 9554 c0bd 120f edbd 939b d6bd 011b ebbd
00000180: 408e dbbd 93ca dfbd 2de9 01be 3c71 edbd
00000190: 8349 c2bd 7327 d9bd 534a 00be 06ff d5bd
000001a0: fb03 e3bd f746 e0bd 5877 ccbd 17f7 bebd
000001b0: 2db5 d6bd 1c94 ebbd babe c7bd 4f5b d2bd
000001c0: 574e c5bd eee8 d8bd f24d e7bd 0c7e c7bd
000001d0: 649d 8ebd f1a4 21be 890b 0abe fe8d a5bd
000001e0: cf8b 88bd c01f 64bd 8534 48bd a9cd 15bd
000001f0: 9889 ffbc 5aed e3bc c889 0fbd 8fd1 60bc
00000200: 2d0b b8bc 2e5d 8fbc 6793 bdbb c2fd 03bc
00000210: 23dc fc3b 9b1e 08bc 982c 9dbb 4c41 29bc
00000220: 3721 91bc c4ac 443c 4a9b 75bc 3962 44bc
00000230: 3e82 4abb c6e5 10ba c94a 65bc a81e 89bb
00000240: 5197 6dbc b138 3abc 7709 78bb 4e9d 8f3c
00000250: de3d 233d f854 6a3c c1db 9e3c 035e e23c
00000260: 72ae 2f3d 863e 0e3d 7297 783d 7a49 6a3d
00000270: 6442 663d 3c8f 933d e91b a23d de73 723d
00000280: 2200 a43d 03a5 9c3d 2639 923d 56da c73d
00000290: 1bd1 9c3d 1772 af3d 772f a63d af7d b43d
000002a0: a8c5 b63d 00fa 993d 6891 c63d a3a9 a83d
000002b0: 5617 c63d fe8a e33d 3193 68bc d9f4 deba
000002c0: 6534 9fbc 4125 bebb c760 0cbd 3e11 a9bc
000002d0: 5c27 25bd 308b 25bd 0c28 63bd 9984 51bd
000002e0: 91d5 25bd 311b 52bd 22ba 49bd eae9 f2bc
000002f0: f368 4dbd fd9d 70bd 45e5 49bd de4e 80bd
00000300: 25f4 48bd e62a 01bd fd2d 29bd a807 2bbd
00000310: b38b 25bc 0286 0e3b f315 2fbb 040c 0d3d
00000320: 51b0 193d 8f16 093d 832c 3a3d 78ab 303d
00000330: 5f6e 0a3d a255 783d 35da d73c bb72 503d
00000340: b75a 2a3d e5a0 173d 1715 48b7 716d be3c
00000350: e12f 533c 8725 a63b 84e3 89ba 10ad 93bb
00000360: 3b3f 16bc c1d5 a73b 7688 bcbc 65bd 55bc
00000370: 83ad bf3a b12b 3dbd 4cd3 b8bc 0289 40bc
00000380: 7b39 a4bc 6f64 f8bc aaa9 00bd 0fde f0bc
00000390: b086 d6bc 3755 0ebd 9181 1cbd b940 3ebc
000003a0: 4b4d 94bb f494 7137 155c ba3a c341 33ba
000003b0: e40e 0a3c 0cc4 293c dbcc 1d3a f5cb a03c
000003c0: 2b79 98ba ef00 d9bb 1b5d 64bc 5eff 133c
000003d0: f25a cabb 464f 733b a11c 9abc 3faf fd3b
000003e0: 6cdf 1dbc b2ba 50bc 711f 45bc 9b79 063c
000003f0: 9ad7 47ba 222a 09bc c8b7 0f3b 6bf6 b43b

fc1.bias f4 [4]
-0.35617363 0.19601807 0.052913796 0.061296985
00000000: 645c b6be f6b8 483e 23bc 583d 8c12 7b3d
